q_network.pth (torch, 433300 bytes, 10 tensors)

conv1.weight f4 [64, 1, 2, 2]
00000000: 48ed 88c0 f654 a0c0 28dd 86c0 224a 92c0
00000010: 2557 9cc0 b7bd 9cc0 056a 8dc0 6437 9ec0
00000020: 3604 5dc0 14c9 11c0 edef 93c0 126f 9cc0
00000030: 4cdf fcbf c572 2dc0 5487 28c0 ad8c 40c0
00000040: 2b62 4fc0 1f12 12c0 fda5 11c0 505e 80c0
00000050: a6b2 4ac0 9eb6 57c0 4cbc 55c0 961f 8cc0
00000060: 7d41 58c0 b213 7cc0 3fc2 4dc0 f4a5 78c0
00000070: e8d6 2fc0 d237 59c0 cebf 5bc0 7b9a 5dc0
00000080: 1f5b 99c0 943d 74c0 1b2f 79c0 2938 b0c0
00000090: 123f 44c0 d8cd 86c0 ee8f 37c0 7f12 81c0
000000a0: a5a9 63c0 4445 94c0 6fe3 53c0 7b89 a2c0
000000b0: 8650 8ec0 78c6 97c0 816a 57c0 c4b2 84c0
000000c0: 8c03 24bd 1ca5 8dbe 7eb2 a63c 0009 24bd
000000d0: c8a7 3bc0 01c0 3cc0 c4ba e7bf e2b6 62c0
000000e0: a887 64c0 ff38 77c0 44e4 7dc0 07fe 98c0
000000f0: ff87 51c0 9c30 9fc0 e581 54c0 4faa a2c0
00000100: 60ad 55c0 83fc 69c0 086e 4fc0 52a6 8fc0
00000110: 804e 74c0 207e bebf b310 e0bf 3385 86c0
00000120: efb9 8cc0 0be2 79c0 ca2e 89c0 7df2 8dc0
00000130: 25e7 33c0 7646 69c0 6538 25c0 538b 7bc0
00000140: f81f b1be e01a 28bd 6823 28be 5054 27bd
00000150: c40e 62c0 77b7 82c0 be6b 87c0 dfc1 aec0
00000160: 6d35 37c0 d383 56c0 7a55 23c0 09b9 82c0
00000170: 5e78 1dc0 14b1 33c0 9ae9 f7bf e8ad 25c0
00000180: 21b8 92c0 c298 99c0 3a63 87c0 8272 39c0
00000190: 22eb 79c0 d165 a3c0 98ae 56c0 ce77 97c0
000001a0: c1a1 15c0 1e55 2ac0 532f 22c0 e7c4 3ac0
000001b0: c8c3 32c0 cc00 94c0 0b7f 47c0 f784 84c0
000001c0: 5493 3abe 5e79 b2be 9890 7abe 7c92 14be
000001d0: 1ca8 7cc0 d1ed 9dc0 0180 37c0 c225 95c0
000001e0: 5fdc f9bf 0617 4ac0 3473 28c0 30d3 38c0
000001f0: 3120 33c0 9983 57c0 db31 8fc0 baad aec0
00000200: 4d5c e3bf ec2e 52c0 8f86 42c0 856f 41c0
00000210: 88a2 56c0 ce00 5ec0 0b47 93c0 e142 acc0
00000220: c6fb cdbf 7c89 2dc0 e457 1ac0 86ae 34c0
00000230: 8d3b 14c0 939c 5bc0 81b1 29c0 9ba5 5ec0
00000240: be41 edbf 8eb9 37c0 623a 12c0 30a6 3ac0
00000250: bafd 2bc0 e7dc 79c0 8662 61c0 e285 95c0
00000260: fb3a 8dc0 c169 98c0 32fa 73c0 a8bf 38c0
00000270: 4d15 25c0 dc42 3fc0 7725 2ec0 1d7c 58c0
00000280: 227d 9abf a409 acc0 5bce b5c0 4b12 91bf
00000290: 2b1a 4ac0 e775 9ac0 74fa 40c0 275f a2c0
000002a0: 552f d4bf 3f7f 2bc0 22e2 16c0 5b48 30c0
000002b0: 5541 13c0 f40a 72c0 3626 5ec0 3e6c 40c0
000002c0: dfff 85c0 ad71 9fc0 6bdf 80c0 128c 9bc0
000002d0: a91c 73c0 d5f4 b0c0 56d5 71c0 c028 8dc0
000002e0: 8712 95c0 d8cf a1c0 4483 16c0 19a0 adc0
000002f0: 7a09 73c0 5124 79c0 e3ea 50c0 d532 78c0
00000300: c1d1 90bf 84d7 8bc0 70ac 92c0 31e5 b2c0
00000310: befc 17c0 bb52 56c0 b4ce 4ec0 e77f 69c0
00000320: de1f 42c0 9852 5ec0 01b4 42c0 b987 44c0
00000330: 0447 3bc0 434a 80c0 5c58 57c0 472a a2c0
00000340: 3141 9ac0 ca51 8cc0 20a7 58c0 401a abc0
00000350: e2c3 6ec0 0ce8 70c0 c83f 89c0 0678 94c0
00000360: dbd3 81c0 4106 9fc0 1775 8bc0 8477 82c0
00000370: 36bb 3fc0 a62e 8ac0 879e 94c0 cdbe a7c0
00000380: b772 12c0 2cdb 2ac0 bf79 05c0 f42d 2fc0
00000390: d3d1 2ec0 7f8c 7dc0 853e 54c0 6909 67c0
000003a0: 90c8 7abd f0e4 2fbd 5834 e4be 2c78 c6be
000003b0: 4b10 57c0 c419 72c0 630b 52c0 303f 8bc0
000003c0: 40dd 05c0 6ee6 30c0 5cb9 38c0 601b 59c0
000003d0: a8ce 5bc0 b814 70c0 9ef9 6cc0 c33d 67c0
000003e0: a314 0ac0 74a2 4fc0 4998 36c0 6771 61c0
000003f0: cf52 2ec0 4ef8 50c0 dd97 f4bf 17ce 4fc0
-4.278965 -5.010371 -4.2144966 -4.5715494 -4.8856378 -4.8981586 -4.419192 -4.9442616
-3.453382 -2.2778978 -4.623038 -4.8885584 -1.9755645 -2.71013 -2.6332598 -3.0085862
-3.2403667 -2.282356 -2.2757561 -4.0115128 -3.1671538 -3.370521 -3.3396177 -4.3788557
-3.378997 -3.938702 -3.2149808 -3.885129 -2.7474918 -3.394032 -3.4335818 -3.4625537
-4.792373 -3.8162584 -3.8935 -5.5068555 -3.0663495 -4.2126274 -2.8681598 -4.033508
-3.5572293 -4.6334553 -3.3107564 -5.0792823 -4.4473295 -4.742977 -3.3658755 -4.146822
-0.040042445 -0.2766503 0.020348784 -0.040047646 -2.9321156 -2.949219 -1.8103871 -3.5424123
-3.5707798 -3.8628538 -3.9670572 -4.781009 -3.2739255 -4.974684 -3.3204281 -5.0832896
-3.338707 -3.656037 -3.2410908 -4.489053 -3.8172913 -1.488224 -1.7505096 -4.2037597
-4.397697 -3.9044216 -4.2869616 -4.4358506 -2.810983 -3.6449256 -2.581567 -3.9303787
-0.34594703 -0.041041255 -0.16419756 -0.04085189 -3.5321512 -4.0848956 -4.231902 -5.461166
-2.8626359 -3.351796 -2.552092 -4.0850873 -2.4604716 -2.807683 -1.9368165 -2.5887394
-4.5849767 -4.799897 -4.2308626 -2.897614 -3.9049764 -5.1061788 -3.3544064 -4.7333746
-2.3379977 -2.6614451 -2.5341384 -2.918268 -2.7931995 -4.6250973 -3.117129 -4.141231
-0.18220264 -0.3485822 -0.2446922 -0.14509004 -3.9477606 -4.9352803 -2.8671877 -4.660859
-1.9520377 -3.1576552 -2.6320314 -2.8878899 -2.7988398 -3.367407 -4.474836 -5.458707
-1.7762543 -3.284114 -3.0394628 -3.0224316 -3.3536701 -3.468799 -4.602422 -5.383164
-1.609246 -2.7115164 -2.4116144 -2.823152 -2.3161347 -3.4314315 -2.651459 -3.4788578
-1.8535688 -2.8707004 -2.2848134 -2.9163933 -2.6873612 -3.9041078 -3.5216384 -4.672593
-4.41345 -4.7629094 -3.8121457 -2.8866978 -2.579425 -2.9884558 -2.7210367 -3.3825753
-1.2069438 -5.376177 -5.68144 -1.1333708 -3.1578472 -4.8268924 -3.0152864 -5.0741153
-1.6576945 -2.6796415 -2.357552 -2.7544162 -2.3008626 -3.7819185 -3.4710822 -3.0066066
-4.1874843 -4.9826264 -4.0272727 -4.8608484 -3.7986243 -5.5298867 -3.778646 -4.4112244
-4.6585116 -5.0566216 -2.3517618 -5.425793 -3.7974534 -3.8928416 -3.2643363 -3.8781025
-1.1314012 -4.370058 -4.5835495 -5.5904775 -2.3748012 -3.3487995 -3.2313662 -3.6484315
-3.033195 -3.4737911 -3.0422366 -3.0707839 -2.9262094 -4.009065 -3.364768 -5.067661
-4.820458 -4.384984 -3.3852005 -5.3469543 -3.7307057 -3.764163 -4.289036 -4.6396513
-4.0571113 -4.9695134 -4.358043 -4.0770893 -2.9958014 -4.3181944 -4.6443515 -5.242041
-2.2882516 -2.6696272 -2.0855558 -2.7371798 -2.7315567 -3.9617002 -3.316316 -3.6099494
-0.061226428 -0.04294294 -0.44571185 -0.3876356 -3.3603694 -3.7828226 -3.281945 -4.3514633
-2.091629 -2.7640643 -2.8863134 -3.3922958 -3.4344883 -3.7512646 -3.7027354 -3.6131446
-2.1575096 -3.2442904 -2.8530447 -3.5225465 -2.7238042 -3.2651553 -1.9108845 -3.2469537

conv1.bias f4 [64]
00000000: a4ad 9cbb bfd1 9cbb c908 3440 a7f7 ef40
00000010: 9629 e840 63a8 d140 9d9d c940 2270 dc40
00000020: fbe4 0a40 7ff4 b540 1e8d a040 b77a 9440
00000030: f8b6 d9be 5cc9 0041 b76c a740 8e29 e4ba
00000040: 11d4 ba40 dec9 c440 cba4 0d40 9821 e040
00000050: f89b 72be a840 9340 ce77 de40 7326 f140
00000060: 0f70 8d3f 66ed a6bb 9f59 0641 547c bc40
00000070: 38d8 72be d162 9d40 3012 0d41 7e34 cb3f
00000080: 5e12 f040 86dc 9040 9991 f840 ccd8 fd40
00000090: 85d4 0041 ca5e c640 b242 7340 7dc2 ed40
000000a0: cdaa a840 1271 b53f 0205 ef40 1846 dc40
000000b0: 6a16 b0bb df93 413e 7955 2640 1480 ba40
000000c0: 41cb 5240 b398 f040 562f e540 d678 b0ba
000000d0: feb2 8940 9716 6140 ac21 73bb 8e2d 6040
000000e0: fbeb fa40 21a8 d240 a050 5dbe 7cc4 bd40
000000f0: f23e e740 f8df c740 c27e e740 c154 e440
-0.0047814418 -0.004785746 2.8130362 7.498981 7.2550764 6.551805 6.30049 6.888688
2.1702259 5.6860957 5.017226 4.63998 -0.42522407 8.04916 5.232021 -0.0017407404
5.838387 6.149642 2.2131832 7.004101 -0.2369231 4.6016426 6.9521246 7.5359435
1.1049823 -0.005094218 8.39688 5.890177 -0.23715293 4.9183125 8.81694 1.5875394
7.502242 4.5269194 7.767773 7.9327145 8.051885 6.199071 3.8009458 7.4299912
5.2708497 1.4175131 7.4693613 6.8835564 -0.0053737657 0.18904065 2.5989668 5.8281345
3.2936556 7.51864 7.1620283 -0.0013463746 4.3030996 3.5170038 -0.0037098927 3.5027804
7.841306 6.5830235 -0.21612787 5.930235 7.2264338 6.24609 7.2342234 7.135346

conv2.weight f4 [128, 64, 2, 2]
00000000: 1be2 1340 df7b ee3f 4fbf 0240 7482 bd3f
00000010: 9e15 1340 2236 d23f 1e77 0b40 96c7 cf3f
00000020: f6fd 0c40 f1b9 c53f b81f 1040 780d b43f
00000030: 0d7c f83f 7055 d03f b2f3 f13f ab13 b73f
00000040: 0ee7 1d40 0477 f43f 070d 1540 f538 f33f
00000050: b593 0440 39a1 cb3f 9692 f93f 1004 bd3f
00000060: 6637 0940 6d29 ca3f 1fe6 f23f 3e69 b33f
00000070: c930 0540 21eb ab3f 734f fd3f bd41 a33f
00000080: 7360 0d40 f66a d73f 65a3 0c40 96f2 e53f
00000090: 42e0 0640 644b e73f d8a4 dc3f 5650 be3f
000000a0: 92f0 f33f 2076 e53f 7e23 f53f 16ef da3f
000000b0: c4b0 1a40 5ebd fe3f 3b0b fd3f 6a40 c93f
000000c0: 0019 2abd ee0b 68bc 2e81 413d 100b 643d
000000d0: 4da6 2540 8e18 fa3f 9d02 1d40 ac6d f83f
000000e0: e970 0940 0c6f d53f 99de 1140 8d14 ed3f
000000f0: 80b0 0d40 80a0 f33f 2405 0340 b6db d83f
00000100: 70ae 1040 aab0 ee3f a2fc 0e40 00ce e23f
00000110: 8261 1d40 497b e13f 1ef5 1140 83c4 e03f
00000120: f960 1640 5b36 cb3f c38d 1240 c3df be3f
00000130: cb7d 0540 aa8e c23f 9a24 f43f b549 bb3f
00000140: cca8 f83c b4fe 04bd 802a f63b 1ca7 0cbd
00000150: 6ed6 0540 f219 d73f fd0b f63f 7c2c c23f
00000160: dd37 1140 012b ea3f 6c71 1540 295a e83f
00000170: 8441 0340 6e32 be3f 931f f83f 2c49 bc3f
00000180: 97d7 2240 cb0f dd3f 3c17 fa3f 0d31 a43f
00000190: 59ce 0b40 79c7 e73f 717d 0340 0a11 d43f
000001a0: b4d2 2940 d35c 0340 1b21 2440 a60e f93f
000001b0: 60fa 0e40 c065 f03f b556 0a40 26e0 e43f
000001c0: 882a ee3c 681c 273d 40b8 5abd 34ed 263d
000001d0: 7fb7 0940 1029 ea3f eb86 e73f 109e c63f
000001e0: 7018 4840 f3d1 1c40 f648 3240 446f 0740
000001f0: be45 0140 9065 d63f 0db7 0140 1544 c93f
00000200: d3f9 2240 33b2 f93f 52c7 1240 69ec d83f
00000210: 280a 1440 b5ea df3f a6fa 0c40 6f53 d23f
00000220: 05f0 f53f 8573 b93f 4e99 e13f fe9e a63f
00000230: 772e 1b40 adb6 ef3f f35c 1a40 d0f9 e33f
00000240: 17b0 e53f 9737 bd3f 8219 e63f 7881 ae3f
00000250: 2d09 1240 bb73 f03f 41ce 0e40 968f e03f
00000260: 440f 2340 6281 f63f 7d3b fe3f 25c3 c43f
00000270: 3207 f23f c6ab d23f 40f0 e23f 9e36 c23f
00000280: d1c5 1a40 d21c ec3f 6954 1240 ee0d d23f
00000290: e7b9 0440 8fa0 f73f 90f1 e23f dd67 d43f
000002a0: e29d ff3f 6481 ba3f f34f f73f 4d0e ad3f
000002b0: 1128 2940 75b9 ee3f 37cc 1b40 959b c23f
000002c0: 7ca2 0d40 e4fc e53f a4c8 0940 8509 cd3f
000002d0: f0d8 1540 6a25 0140 2111 fb3f caeb c43f
000002e0: 4b44 0f40 dc13 f63f 69c6 fc3f e0d6 d93f
000002f0: 7df1 1540 9c98 f43f 389a 0e40 f3f0 da3f
00000300: bb0e 0040 6b6c f43f 14d4 0d40 015c e63f
00000310: 7b38 1440 5580 0540 0077 0c40 5f97 e63f
00000320: ec75 1740 4078 f83f 938f 1f40 736d 0040
00000330: 5f43 0f40 bc63 f73f 602c 0940 ab5a e53f
00000340: 848c 1140 90fd fc3f 9146 f53f 505e e63f
00000350: d75d 0440 eb91 c13f 8939 0a40 097b cd3f
00000360: c28f 1d40 22a8 f93f 862e f53f f4eb b13f
00000370: 4ea5 0c40 daff db3f 5732 0e40 0b66 e23f
00000380: c368 f33f 8c9f c33f d2ef e53f 7f8a ae3f
00000390: 18ba 0440 39e1 d03f 7501 f13f 3784 ae3f
000003a0: f0b0 af3b 000f 1abc 8094 e2bc 2499 2e3d
000003b0: 95bb 1040 86f9 fd3f e1e2 0940 4a6f ce3f
000003c0: 52fa f53f f917 c63f 2398 ed3f 7d27 b53f
000003d0: d5b8 0840 ce52 bb3f db8a 0240 1a26 b33f
000003e0: ac31 f43f c150 cc3f e708 ee3f e20c ba3f
000003f0: 416d fa3f 4a10 c73f b123 f53f 4bb1 c73f
2.3106754 1.8631552 2.0429265 1.4805436 2.2981944 1.642277 2.1791453 1.6232784
2.2030005 1.544737 2.251936 1.406661 1.9412857 1.6276073 1.8902495 1.4302877
2.4672275 1.9098821 2.3289201 1.9001757 2.0715153 1.5908576 1.949786 1.4766865
2.1440063 1.5793892 1.8976477 1.4016492 2.0811026 1.3431131 1.9789871 1.2754437
2.2090118 1.6829517 2.1974728 1.7964656 2.1074376 1.8069882 1.7237806 1.4868267
1.9057791 1.7926674 1.9151456 1.7104213 2.417039 1.990154 1.9769052 1.5722783
-0.041527748 -0.0141630005 0.047242336 0.055674613 2.5882752 1.9538743 2.4532845 1.9408469
2.1475165 1.6674514 2.2792113 1.8521897 2.2138977 1.9033356 2.0471888 1.694205
2.2606468 1.8647664 2.2341695 1.7719116 2.4590764 1.7615749 2.2805858 1.7559971
2.3496687 1.5875963 2.2899024 1.4912037 2.0858028 1.5199788 1.907367 1.4631869
0.030353926 -0.032469466 0.0075123906 -0.034339055 2.0912127 1.6804793 1.9222409 1.5169826
2.2690346 1.8294374 2.3350477 1.8152515 2.0508738 1.485914 1.9384636 1.470983
2.5444086 1.7270445 1.953834 1.2827469 2.1844695 1.8107749 2.0545313 1.65677
2.6534853 2.0525405 2.5645206 1.9457595 2.2340317 1.8781052 2.1615422 1.7880905
0.029073015 0.040798575 -0.05339837 0.04075356 2.1518247 1.8293781 1.8088049 1.5516987
3.1264915 2.4503143 2.7857032 2.116166 2.0198817 1.6749744 2.0267975 1.5723902
2.546498 1.9507507 2.2934155 1.6947147 2.31312 1.7493502 2.2027984 1.6431712
1.9213873 1.4488379 1.762491 1.301727 2.424711 1.8727623 2.4119232 1.7810612
1.7944363 1.478259 1.7976534 1.3633261 2.28181 1.8785318 2.2313387 1.7543819
2.5478067 1.9258235 1.9861904 1.5372053 1.8908446 1.6458671 1.7729568 1.5172918
2.4183238 1.8446295 2.286402 1.6410501 2.0738466 1.9345874 1.7729969 1.6594197
1.9970057 1.4570737 1.9321274 1.3519989 2.6430705 1.8650347 2.4343393 1.520373
2.2130423 1.7967801 2.1528711 1.601853 2.3413658 2.0179086 1.9614602 1.5384457
2.2385433 1.9224811 1.974805 1.70187 2.3428643 1.9109073 2.2281628 1.7104782
2.000899 1.9095587 2.2160692 1.7996827 2.3159473 2.0859578 2.1947632 1.8014945
2.3665724 1.9411697 2.493138 2.0066803 2.238487 1.9327312 2.1433334 1.7918295
2.2742014 1.9764881 1.916216 1.7997532 2.0682275 1.5122656 2.1597617 1.6053172
2.4618993 1.9504435 1.9154823 1.3900132 2.1975894 1.7187455 2.2218225 1.7687391
1.9016346 1.5283065 1.7963812 1.3636016 2.0738583 1.6318733 1.882857 1.3634099
0.0053616688 -0.00940299 -0.027658701 0.042626515 2.261449 1.9841774 2.1544726 1.6127713
1.9217017 1.5476066 1.8562053 1.4152676 2.1362813 1.4634645 2.039725 1.3996003
1.9077659 1.5962144 1.8596467 1.4535182 1.9564592 1.5551846 1.9151517 1.560098

conv2.bias f4 [128]
00000000: 3568 4740 3d0c 4540 8e93 4740 0e9e 4540
00000010: d88e 4640 1c75 4740 411e 4540 0186 4940
00000020: 8847 4640 fd7a 4a40 fb81 4740 35c7 583d
00000030: 30ee 4940 79d5 4640 e1b4 4540 3d6f 4940
00000040: 3b21 4940 4a75 4640 b86a 85bd 2d5e 4340
00000050: ffae 4440 07b6 4840 9a69 4540 3bbc 4540
00000060: 4248 4540 35dd 4740 93f2 4640 b049 9fbd
00000070: 362d 4740 96b6 4340 1cc0 feba 0b56 4440
00000080: d4da 4940 fe84 4740 8d84 f140 5dd6 4840
00000090: 4046 4740 6d68 4540 089c 4540 6704 4340
000000a0: 4651 4440 99be 4740 aec6 4540 45a1 4840
000000b0: e804 4840 bf7d 4940 f8f6 85bd 7c61 03be
000000c0: 830c 4840 d013 4940 828d 4840 1b16 4340
000000d0: 5add 4440 6b54 4540 eef5 4640 373f 4440
000000e0: 914d 4440 0ac3 4840 ff9a 4340 b4b9 4240
000000f0: d859 4440 4aba 4340 4e3a 0fbe fc51 03be
00000100: e957 d2bd ed2d 4240 9848 4240 6955 3a41
00000110: aa3d 4340 edd6 4640 582d 4340 e44f 3741
00000120: 2c57 4240 45a0 4740 f110 4740 c73d 4340
00000130: 54ad 4540 bb56 4340 2469 4540 87d3 2241
00000140: 59f2 4840 f8b9 4540 bbb3 4640 465c 4740
00000150: 5ebd 4640 1594 4640 1ac2 4840 de42 4440
00000160: 2bbd 4440 3bbc 4840 4507 4440 528f 4a40
00000170: 0730 4840 4fd7 4740 1cc8 4340 36bc 4540
00000180: 7cb4 03be 55da 4740 e8eb 4940 a324 4a40
00000190: 2008 4940 a475 4440 ea7d 4a40 9011 4940
000001a0: c396 4340 7bd3 4540 8729 4840 eec7 4340
000001b0: 18b0 4340 6bdc 4740 b791 3a41 e98f 4940
000001c0: 874c 4940 3c60 4940 2d36 4540 480e 4940
000001d0: 39eb 4840 aea9 4440 495b 4640 a62c 4440
000001e0: 0db2 4540 4020 4440 7a9f 4940 5c88 4440
000001f0: 4161 4340 9432 4540 99f7 4940 718f 4340
3.1157353 3.078872 3.118381 3.087772 3.1024685 3.1165228 3.0799716 3.148804
3.098116 3.1637566 3.1173084 0.052924354 3.1551628 3.1067793 3.089165 3.1474144
3.1426532 3.1009088 -0.065144956 3.052623 3.073181 3.13611 3.0845704 3.0896137
3.0825353 3.1228764 3.1085556 -0.07777727 3.1121345 3.0580192 -0.0019435915 3.0677516
3.1539812 3.1174922 7.5474305 3.1380837 3.1136627 3.0844986 3.0876484 3.0471437
3.0674605 3.1210082 3.0902514 3.134843 3.1252995 3.1483 -0.06541246 -0.12830156
3.1257637 3.1418343 3.133637 3.0482242 3.0760102 3.0832775 3.1087604 3.0663583
3.0672343 3.1369042 3.0563352 3.0425844 3.0679836 3.0582452 -0.13987085 -0.12824243
-0.10270674 3.034053 3.0356808 11.645852 3.0506387 3.106868 3.0496426 11.457005
3.0365705 3.119157 3.110409 3.0506456 3.088704 3.0521686 3.0845423 10.176642
3.1397917 3.0894756 3.1047199 3.115007 3.105308 3.1027882 3.136847 3.0665812
3.074046 3.1364887 3.0629437 3.1649976 3.1279314 3.1225164 3.0590887 3.0896125
-0.12861818 3.122701 3.1550236 3.1584861 3.141121 3.0696802 3.1639352 3.141697
3.0560768 3.0910327 3.1275346 3.0590777 3.057623 3.1228282 11.660575 3.1494086
3.1452959 3.1464987 3.0814316 3.1414967 3.1393569 3.0728564 3.0993216 3.0652251
3.0889924 3.0644684 3.1503587 3.0708227 3.052811 3.081212 3.1557372 3.05563

fc1.weight f4 [128, 512]
00000000: 8f0d 1040 0be8 e73f 19f7 0540 1f92 d13f
00000010: ef6f 1240 f087 df3f 5026 0840 82b4 d23f
00000020: 5b7f 0e40 3b64 de3f 4a54 0840 703c d03f
00000030: 2f34 0e40 23ce e53f 7b5f 0540 c72f d13f
00000040: 82fd 0e40 78b7 e93f f367 0740 e2ff d83f
00000050: 953f 0f40 4887 e53f 8a91 0740 8a10 d13f
00000060: 0f6e 1140 ae82 e13f f5f0 0740 3a9d d13f
00000070: 6898 0c40 65b4 e83f 69c7 0540 35fc ce3f
00000080: e1f3 0e40 de92 dd3f 1253 0540 09e5 cf3f
00000090: 0f4b 1040 0419 e03f 143a 0940 d5a6 d63f
000000a0: cfcb 1140 9263 de3f c278 0840 80a5 d73f
000000b0: c2c3 08c0 98ac 84bf 2e0d 37bf b7e5 273e
000000c0: 0ebf 0d40 2fa9 e83f f7b1 0640 614e d53f
000000d0: edc5 0f40 c5e1 e23f eed2 0540 8822 d23f
000000e0: 4f5d 0f40 8fbe e03f 4412 0740 1493 d13f
000000f0: cdc2 0f40 b6a6 e43f f2db 0540 f0c5 ce3f
00000100: 2574 1140 4933 e83f cff6 0540 5161 cf3f
00000110: dd52 0d40 9551 e63f 68db 0840 d7cb d63f
00000120: 7efe 3c3c 353e 023d c584 07bd a928 98bb
00000130: 0156 1140 004d e93f 34c8 0740 7eb8 d73f
00000140: a9be 0d40 6f2f e33f ee1e 0840 a88d d03f
00000150: e293 0f40 9c4a e83f 8a24 0640 62fd d03f
00000160: 0be1 0c40 64a6 e73f 2c47 0540 6252 d13f
00000170: 1831 0f40 fae0 df3f f5ec 0740 0c85 d53f
00000180: 5ece 0f40 027d e03f 54b5 0940 1508 ce3f
00000190: 45b1 1040 952e e03f 84ea 0540 0b45 cf3f
000001a0: 3994 1040 eb41 e73f f6d2 0440 3e7b d53f
000001b0: 15f4 a33b d60d 153d a768 78bb db85 1dbd
000001c0: 28ed 1040 8f89 df3f 9b56 0840 a2a3 d93f
000001d0: 0d0c 1140 3d7f e83f 2f0b 0540 cbe3 d13f
000001e0: 479e 0dc0 26f3 2ac0 834a 03c0 3845 02c0
000001f0: 6aa8 0e40 a680 df3f 3cbf 0740 883a d93f
00000200: a6db 1140 07aa e73f 06d2 0540 37a3 d43f
00000210: 77a2 1140 c57c e33f 8357 0540 7b81 d13f
00000220: 7a8c 9cc0 b1a2 6ec0 ebc1 90c0 ac4c 55c0
00000230: d054 1040 4f2f e43f a41d 0640 a034 d43f
00000240: fe5f 1140 1a17 e83f 35de 0440 e21b d83f
00000250: 9c80 0e40 ece5 e03f 12ba 0440 6cb6 d13f
00000260: b417 0f40 f7b1 e03f c929 0640 3b2e d13f
00000270: 4a03 1040 9cee e23f d228 0540 2060 d93f
00000280: 940a 1140 3186 e93f e6f7 0540 ccab d73f
00000290: 63ab 0f40 7719 e83f ee20 0a40 b341 d63f
000002a0: 255a 1040 9655 e03f 4094 0740 5939 d13f
000002b0: a06f 0e40 2503 e43f 4adc 0740 b69a d13f
000002c0: deb0 0d40 bb06 e53f 52e4 0840 5141 d43f
000002d0: 9300 1140 5926 e23f 775d 0940 bbfc cf3f
000002e0: 660c 00bd 49e2 f6bc cd92 8bbd 346b 35bd
000002f0: f737 433b 258e 093a 0370 10bd de8c 29bd
00000300: 77f2 1040 002c e23f 2078 0540 81d3 d23f
00000310: 5cd6 0f40 799c e83f 58bf 0840 d71b d13f
00000320: bc20 0e40 43b3 e83f a17a 0940 9df5 d83f
00000330: 975a 1140 d275 e83f 2973 0740 54ec d63f
00000340: 3e80 1040 a8d1 e63f 5ffe 0640 ebaa d03f
00000350: a916 0c40 5570 e73f f495 0640 83bf d73f
00000360: d6a1 1140 7649 e73f 5168 0a40 91ef d83f
00000370: 1135 0c40 01b9 e73f 4021 0740 e271 cf3f
00000380: 83ac 0d40 56a1 e53f 38cd 0640 2fa9 d03f
00000390: 1f7a 0e40 7547 e33f 237e 0740 500a d93f
000003a0: 1070 0c40 f7a8 e53f c35d 0940 3969 d03f
000003b0: 2c9b 0e40 9343 e53f 376b 0940 4c09 da3f
000003c0: a2f9 0c40 e694 e93f 2666 0840 44ee cf3f
000003d0: 6ed5 0e40 42db e63f b280 0740 bfe9 d33f
000003e0: 515f 02bd 14e9 cfbd 27bd b2bc 47b4 85bc
000003f0: 6f85 103d 056b 703b b452 703c c120 a13c
2.2508276 1.8117689 2.0932066 1.6372718 2.288082 1.746336 2.1273384 1.6461337
2.2265232 1.7374338 2.1301446 1.6268444 2.221935 1.7953533 2.0839527 1.6342705
2.234223 1.8259115 2.1157196 1.6953089 2.2382557 1.793191 2.118258 1.6333172
2.2723424 1.7618005 2.1240819 1.6376107 2.1968021 1.8180052 2.090296 1.6170717
2.2336352 1.7310445 2.0831952 1.6241771 2.2545812 1.7507634 2.1441698 1.6769663
2.2780645 1.7374136 2.1323705 1.6847382 -2.136948 -1.0365171 -0.71504486 0.16396223
2.214786 1.8176631 2.104612 1.6664544 2.2464554 1.7725149 2.0909991 1.6416788
2.24007 1.7558154 2.1104898 1.637301 2.2462647 1.7863376 2.0915494 1.6154156
2.272714 1.8140651 2.093189 1.6201574 2.2081826 1.7993647 2.1383915 1.6780957
0.011535285 0.031797606 -0.033085603 -0.004643519 2.2708743 1.8226624 2.1215944 1.6853178
2.214762 1.774885 2.1268878 1.629323 2.243401 1.8147769 2.0959802 1.6327326
2.2012355 1.8097653 2.082469 1.6353266 2.2373714 1.7490532 2.1238377 1.6681228
2.2469707 1.7538149 2.1516924 1.6096216 2.2608197 1.7514216 2.0924387 1.6192945
2.2590468 1.8066992 2.075376 1.6678236 0.005003462 0.036390148 -0.0037904175 -0.038457733
2.2644749 1.7463855 2.130286 1.7003062 2.2663605 1.816383 2.0788076 1.6397642
-2.2127855 -2.6710906 -2.0514228 -2.0354748 2.2290292 1.7461135 2.121047 1.6970987
2.2790313 1.8098763 2.0909438 1.6612309 2.275541 1.7772452 2.0834663 1.6367639
-4.892148 -3.72868 -4.5236716 -3.3328047 2.2551765 1.7826937 2.0955591 1.657856
2.271484 1.813205 2.0760624 1.6883509 2.2265997 1.7570167 2.0738568 1.6383796
2.2358217 1.755431 2.0963004 1.6342233 2.2502007 1.7729068 2.0806165 1.698246
2.2662706 1.8244077 2.0932555 1.6849303 2.2448356 1.8132771 2.1582599 1.67388
2.255502 1.7526119 2.1184235 1.6345626 2.225563 1.781346 2.1228204 1.6375339
2.21392 1.7892679 2.1389356 1.6582433 2.26566 1.7667953 2.1463296 1.6249002
-0.031261824 -0.030137198 -0.068151094 -0.04429169 0.0029787996 0.00052473164 -0.035263073 -0.041394107
2.2647989 1.7669678 2.0854568 1.6470796 2.2474585 1.8172752 2.1366787 1.6336621
2.220748 1.8179706 2.1481097 1.6949955 2.2711542 1.8160956 2.1164038 1.6790872
2.2578273 1.8032732 2.1092756 1.630216 2.188883 1.8081156 2.1029024 1.685532
2.2755027 1.8069293 2.162617 1.694811 2.190739 1.8103334 2.1114044 1.6206629
2.2136543 1.7939861 2.1062756 1.6301631 2.2262037 1.7756182 2.1170738 1.6956272
2.1943398 1.7942189 2.1463478 1.6282111 2.228221 1.7911247 2.1471689 1.7034087
2.2027364 1.8248565 2.1312346 1.6244588 2.2317767 1.8035662 2.11723 1.6555709
-0.031829182 -0.10151878 -0.02181871 -0.016321314 0.035283502 0.0036684882 0.014668155 0.019668939

fc1.bias f4 [128]
00000000: 1546 803f 5dce 813f e305 aebc bc05 813f
00000010: dee5 733f 30a8 c33c e7fe 703f 8a0c 08bc
00000020: f1fa 6b3f 9382 1dbd d427 813f 5b40 14bd
00000030: 9168 7e3f c524 7a3f 472a 073c 78eb 3e41
00000040: 57b3 8f3c bc10 6c3f dda1 b9ba d5c7 10bd
00000050: c364 753f 2a05 823f 34ba 733f 8763 7a3f
00000060: 7c7a a1bc 4a33 813f 85cb 843f bef5 7e3f
00000070: 3e69 6d3f 7962 873f 497a 31bd 056c 793f
00000080: 6a54 753f 94d8 713f 233f 7b3f 636d afbc
00000090: f087 853f 58c8 e53c 09d3 6ebd d8a5 6f3f
000000a0: a4e4 4ebc c801 9a3c 7fe1 7b3f 5d1f 803f
000000b0: addf 663f 179a 52bc 32f3 8cba 36ab 723f
000000c0: 4b4b 6d3f 7daa 733f b9fa 7e3f 6307 cebc
000000d0: 391a b13c dbb4 013d 7c36 473c f9a7 653f
000000e0: 211c 763f 4a17 0abd 53ff 783f 06ba 703f
000000f0: fee7 0a3c a6d5 743f e4ef 06bd 8a36 793f
00000100: ff9d 813f bc7e 6d3f e630 823f 7ed3 853f
00000110: 99ed 68bd df60 793f 1ab3 673f 4ada 713f
00000120: 533a 693f ea18 823f 91db 693f 4bf9 763f
00000130: 627b 09bc 4069 713f 6a1d e53c 83f4 783f
00000140: 9b6d 823f fe66 5dbd 0086 7d3f 6b7d 713f
00000150: bb8f 913c 7b33 5e3f 1487 7b3f cfe0 763f
00000160: 14bb 673f 8b19 793f 3f72 743f bb45 813f
00000170: 06f0 763f 48f2 7f3f 25e4 723f 0267 9e3b
00000180: 9526 803f dc97 703f 31b6 ca40 aabe 1cbd
00000190: 3596 773f 60a5 783f 536e 833f d100 edbb
000001a0: 4a6d 723f c12a cd40 ea8b 813f 8775 f9bc
000001b0: 7ab9 783f 7b15 5ebd 2ac3 773f 74e0 643f
000001c0: 03b8 723f 1e38 753f 79f3 683f 42df b23b
000001d0: b3bb 833f e1ad 49bd 922d dc3c b71d 7e3f
000001e0: 808e 773f 33af 763f 7bde 703f 9f9b 843f
000001f0: 0981 833f 8f1c 853f aaf8 c8bc 9f86 e13c
1.0021387 1.0141102 -0.021243041 1.0079875 0.95272624 0.023883909 0.9413895 -0.008303771
0.9217978 -0.038454603 1.009028 -0.036194187 0.99378306 0.97712356 0.008249826 11.9324875
0.01754157 0.92213035 -0.0014162619 -0.035346825 0.95856875 1.0157826 0.95206 0.97808117
-0.019711725 1.0093777 1.0374609 0.9959372 0.9273871 1.0576926 -0.04332951 0.9743045
0.9583193 0.94471097 0.98143214 -0.021414464 1.043211 0.028049633 -0.058306728 0.9361243
-0.012627754 0.018799677 0.98390955 1.0009571 0.9018505 -0.012854121 -0.001075363 0.947925
0.9269301 0.9518202 0.9960132 -0.025150007 0.02161895 0.031666618 0.012158986 0.8970943
0.9613667 -0.033713616 0.97264594 0.9403385 0.008478163 0.956385 -0.03294362 0.97348845
1.0126342 0.92771506 1.0171173 1.0455167 -0.056867216 0.9741344 0.9050766 0.9447371
0.9110462 1.0163853 0.91350657 0.9647414 -0.008391233 0.94301224 0.027968127 0.97248095
1.0189699 -0.0540533 0.9903259 0.94332 0.017768731 0.867973 0.9825299 0.9643678
0.90519834 0.973046 0.95486826 1.0099405 0.96459997 0.99979067 0.9487937 0.004834057
1.0011774 0.9398172 6.33474 -0.03826777 0.9671357 0.9712734 1.0268043 -0.0072327633
0.9469801 6.411469 1.0120823 -0.03045155 0.97158015 -0.054219704 0.9678217 0.8940499
0.9481203 0.95788753 0.9099651 0.0054587433 1.0291656 -0.04923809 0.026877198 0.9926409
0.9670181 0.9636108 0.9408948 1.0359992 1.0273753 1.039934 -0.024532635 0.027530013

fc2.weight f4 [64, 128]
00000000: 6b13 0c40 a03c 1340 68d5 56bd 064b 0e40
00000010: 3b2c 1640 ec84 833a 0e81 0d40 16e8 41bd
00000020: d4e6 1540 ff94 6bbd 7e52 1040 9d17 393d
00000030: 4707 0d40 d1a3 1440 1586 66bd 01fa f7c0
00000040: c061 fc3c 8a81 0f40 bb1b bc3d 85e9 b13c
00000050: d09b 0a40 810c 1340 53f7 0e40 3e38 1240
00000060: 6bfb 76bd 6362 0f40 ed9d 0b40 4fa8 1340
00000070: a5ff 1240 4da1 0b40 fee2 f9bc 8dc5 1140
00000080: d10a 0d40 e5c4 1240 545c 1540 fe4b 493d
00000090: 5975 0d40 7a24 0e3c a1cd 1a3d 847f 0d40
000000a0: 8df3 493d cca9 90bc a6ff 1140 bab3 0c40
000000b0: 42d0 1340 3c41 75bd 9e77 a0bd edd2 1140
000000c0: 9353 1340 3347 1140 2208 0c40 3d39 e83c
000000d0: 0714 453b da48 8bbc 197c 02bd 0a71 1140
000000e0: 3d4b 0f40 494f 74bc 020e 0b40 2798 0d40
000000f0: 6d5b 51bd 1cb9 0a40 ef23 3fbc ca98 0f40
00000100: 3305 0d40 1fec 1040 52e5 1040 0c74 0c40
00000110: d64a 0dbd 0b76 0f40 d46a 0d40 2141 1340
00000120: 7a0f 1240 91aa 0a40 516f 0c40 156a 0e40
00000130: f627 943c b85b 1440 6d5d bc3c b90b 1140
00000140: 2818 0d40 828b d03c 7d03 1340 2d5f 1540
00000150: d9e0 3ebd 6d38 0d40 c5f8 0f40 22f6 1540
00000160: f98e 1540 de65 0d40 7ac6 0d40 f2c8 1240
00000170: 3b2b 1440 ba89 1340 8d23 1240 41c6 c53c
00000180: 78df 1540 c31a 1340 22af 38c0 32f4 353c
00000190: b394 1140 10f5 1440 7fd4 1240 f7b4 26bd
000001a0: 3ca8 1140 1cde 34c0 9f8e 0d40 a20a 6cbb
000001b0: f00f 0f40 fde0 b6bd fec5 0c40 5189 1340
000001c0: 225b 1340 0639 1640 1af7 1540 6c71 2c3c
000001d0: 8560 1240 0e7a a0bc 118f 183d 121e 1540
000001e0: 76a3 1340 e568 0f40 9d6d 1340 05b6 1140
000001f0: e7b5 1340 2ea5 0e40 f104 5c3d fe91 293c
00000200: 39b9 973d a50b c43b 58b9 a03d 6b9e 633d
00000210: e8fb 8f3d 3e64 8b3c 54ae e2bb f0ff 833b
00000220: ef3e 2e3b d9ee a03d 52d7 873d 49cc 4e3d
00000230: 0694 d7bc 61fb 67bd 968e 293d 0084 513b
00000240: 8441 3ebd 78a3 77bd eadf 62bd 202f 023d
00000250: 7fc0 17bd 71ea 14bd 8005 bc3b fd5c e7bc
00000260: ee34 a9bb 41f7 03bc 2bd3 14bd 2110 6abd
00000270: 7fc8 31bd a723 16bc a9f3 2dbd cd56 ab3c
00000280: acf4 7c3d 642c 133a caab 6dbd 8e6c 91bd
00000290: 580c a9bc 7bd1 7b3d e17b 16bd d964 41bd
000002a0: 6a7e 54bd 7ff2 ec3c 1cc7 86bd 6341 c9bc
000002b0: 47c1 3bbd 0a66 393d a96b 5d3b 2510 26bd
000002c0: ca6e 43bd 9d0f 10bc abc3 a2bc 0acc a3bd
000002d0: f836 593d fb89 a5bb 59b3 db3c d523 9dbb
000002e0: 5302 96bd bba5 ac3c 58bf 1f3d 25b0 3dbd
000002f0: 41ab 063d fef4 65bb 6aeb 343d 963a 5abd
00000300: d12f ddbb 2fc1 6abc dcce 21bd 47ff 45bc
00000310: 9022 413d a883 7c3c 59fa 253d f1c5 9bba
00000320: 3ce6 453d 0b8a 403d e7c5 40bd 3fac a1bd
00000330: 94db 7f3d 25ab dd3c 7555 d9bc e52f c33c
00000340: c851 94bd 9eb4 c5bb 33f7 59bd 137e 51bd
00000350: 1281 6ebb a29a b63c 84fa c83c 14f1 0a3d
00000360: bcc1 413d 7b28 05bc 632b a7bd fc35 87bd
00000370: 3b67 c2bd f1e3 2dbc 14a0 76bd 7f5d c0bc
00000380: b54e e9bc 571b 3b3d a8d1 15bc 4289 b7bb
00000390: a19f 06bd d6ea b9bd b3ed 663d 97e9 583d
000003a0: d9c8 1fbd 708c a4bc 001e b9bb c3ed 96bd
000003b0: 74e9 fa3c d624 793d 29b2 1ebc 0380 7e3d
000003c0: 3ba1 ec3c 5297 67bd 6943 a3bd cba2 b3bd
000003d0: 6568 e43c 7feb 953c 8b8c 893c e890 893a
000003e0: 545e a2bd c718 a8bd 9014 63bd 5d79 23bd
000003f0: 0afe 3fbd d6e1 c1bb 6689 4a3d fea0 9d38
2.1886852 2.3005753 -0.052449614 2.223329 2.3464496 0.0010034121 2.2110019 -0.047340475
2.3422136 -0.05751514 2.255035 0.045188535 2.2035692 2.3224986 -0.056280214 -7.749268
0.03080833 2.2422814 0.09184977 0.021717796 2.16576 2.2976382 2.2338455 2.2846828
-0.060298365 2.24038 2.181514 2.3071477 2.2968533 2.18172 -0.030503746 2.2776825
2.2037852 2.2932675 2.3337603 0.049144737 2.2102873 0.008675689 0.03779376 2.210908
0.049304534 -0.01765909 2.2812285 2.1984696 2.309586 -0.059876665 -0.07835315 2.278499
2.301976 2.2699707 2.1879964 0.028347606 0.0030071752 -0.017002512 -0.03185663 2.2725244
2.2389672 -0.014911481 2.17273 2.2124116 -0.05111258 2.1675482 -0.011666282 2.2437005
2.2034423 2.2644117 2.2639966 2.194583 -0.034495197 2.2415798 2.2096453 2.3008502
2.2821946 2.1666605 2.1942942 2.2252247 0.018085461 2.318098 0.022993768 2.2663405
2.2045994 0.025457148 2.297088 2.333934 -0.04660115 2.206569 2.2495587 2.3431478
2.3368514 2.2093425 2.215239 2.2935147 2.3151386 2.3052812 2.2834198 0.024142386
2.3417645 2.2985084 -2.8856893 0.011105584 2.2747009 2.3274574 2.2942197 -0.040699925
2.2758932 -2.8260565 2.21183 -0.003601708 2.2353477 -0.08929632 2.1995845 2.3052561
2.3024373 2.3472304 2.343207 0.010525089 2.287141 -0.01958945 0.037245814 2.3299603
2.3068519 2.2407773 2.3035653 2.2767346 2.3079774 2.2288318 0.05371565 0.010349749
0.07408375 0.0059828334 0.078478515 0.055571 0.07030469 0.017015573 -0.006917754 0.004028313
0.0026587804 0.078580566 0.06632866 0.05048779 -0.0263157 -0.056636218 0.041395746 0.0031969547
-0.0464492 -0.06045863 -0.055389322 0.031783223 -0.037048813 -0.036356393 0.0057379603 -0.028242582
-0.0051637804 -0.008054555 -0.036334198 -0.057144288 -0.0434041 -0.009163774 -0.0424687 0.020915413
0.061756775 0.00056142197 -0.05802516 -0.07100783 -0.020635769 0.061479073 -0.036739234 -0.047215316
-0.05187837 0.028924225 -0.06580946 -0.024567312 -0.04583862 0.045263328 0.0033786094 -0.04054274
-0.04771308 -0.008792785 -0.019868692 -0.07997902 0.053030938 -0.005051849 0.026818918 -0.0047955313
-0.07324662 0.02107512 0.03900084 -0.046310563 0.032878164 -0.0035088654 0.04416982 -0.05327853
-0.006750085 -0.014328285 -0.039503917 -0.012084789 0.047152102 0.015412249 0.040521953 -0.0011884553
0.04831527 0.047006648 -0.047063734 -0.078941815 0.062465265 0.027059147 -0.026530007 0.023826549
-0.07242161 -0.006033494 -0.053214263 -0.051145624 -0.003639285 0.022290532 0.024533518 0.033921316
0.0473039 -0.008127327 -0.08162572 -0.066020936 -0.09492346 -0.0106134275 -0.060211256 -0.023482082
-0.028479913 0.04568037 -0.009144224 -0.005601079 -0.032867078 -0.090779945 0.05637903 0.052957144
-0.039009903 -0.020086497 -0.005649328 -0.07369568 0.030628897 0.060826145 -0.009686031 0.0621338
0.028885474 -0.056540795 -0.07971842 -0.08771285 0.02788181 0.01830077 0.016790649 0.0010495456
-0.07928148 -0.08207851 -0.05543953 -0.039910663 -0.04687313 -0.0059168143 0.04944744 7.5163305e-05

fc2.bias f4 [64]
00000000: c237 d5bf 11cd 9f3c e465 9fbc 70f9 323d
00000010: 2a44 8c3e 158e acbd 946d 75bb ed0c 91bd
00000020: 6e99 7b3d ba34 e0bd acf9 76bc 3837 d23c
00000030: c5a3 87c0 49d1 99bd 25f6 c5bf 5a32 c540
00000040: f69f d5c0 7487 29bd 7f6b 13c0 b4c5 273d
00000050: ca79 09bd 1bd8 a6bc 7f05 c3bd fa1e c3bd
00000060: 1bc3 92bd 5bd3 9040 9be4 cbbd 396f cdc0
00000070: 8a1b 3440 44f4 fdbf fdcd abc0 c4dd 0ebd
00000080: 6bf1 96c0 5671 6ebd bc2d 223c e144 38bf
00000090: b1be 6a40 e765 96bd 9a30 bdc0 8605 0ec0
000000a0: dce3 1340 31ad d240 7b67 4ebd 71a0 f740
000000b0: c0fe 7abd 118e 8bbd 6df4 5c3d 0fe7 0840
000000c0: d62a d7bd 3c06 a8bc 579e aabe f15d 06c0
000000d0: d7c4 e2bc 4a5b ecbc 40dc 773e 2815 ec3c
000000e0: 488a a6c0 8e7d cf40 be0c bf3f 9f35 e6bd
000000f0: 6037 833b 9646 d0bc 3e5c a73b 91bb 1bc0
-1.6657641 0.019506963 -0.019457765 0.043694913 0.27395755 -0.084255375 -0.0037449347 -0.070825435
0.06142562 -0.10947557 -0.015074175 0.025661096 -4.2387414 -0.07510621 -1.5465742 6.1623964
-6.6757765 -0.041388944 -2.303436 0.04096003 -0.033563413 -0.020366719 -0.09522533 -0.09527393
-0.0716612 4.5258 -0.099557124 -6.419827 2.8141809 -1.9840169 -5.368895 -0.03487946
-4.71697 -0.058213554 0.009898599 -0.719801 3.6678889 -0.07343655 -5.912183 -2.2190871
2.3107824 6.5836415 -0.050391655 7.738335 -0.061278105 -0.068142064 0.05394404 2.1391027
-0.10506217 -0.020510785 -0.3332393 -2.0994837 -0.027681751 -0.028852124 0.24205112 0.028818682
-5.20438 6.4840765 1.4925764 -0.11240696 0.004004404 -0.025424283 0.0051074317 -2.4333231

fc3.weight f4 [4, 64]
00000000: 968b 1d3f a932 b83d 95e4 ecbc c45e bfbd
00000010: cb8e 0d3f 60cc e13c c021 0c3c 6bd6 8c3d
00000020: 6223 edbd 7df5 99bc 411f aabc c629 07bd
00000030: d61e 073f b2bb c0bd 9001 203f 5cf8 19c0
00000040: 367e f63e 78bc 073e e753 1b3f bbe8 cfbd
00000050: 4476 bdbb 9c1b 1f3c cf24 333f a0e7 713d
00000060: ea70 803d 71ec 203f b2c5 963d 9a97 013f
00000070: e2f3 153f fdad 343f 2369 1f3f 5d21 8f3c
00000080: 79e9 1c3f 0c6e 883d b3a1 6d3c 17f0 2d3f
00000090: 59ac fe3e 2453 13bd 0ad1 033f 65c3 213f
000000a0: 5278 2d3f 5b2f 103f b4bd 4bbd 4464 2a3f
000000b0: 0ee9 bb3d 3a40 ef3c 6d38 bebd 035e 2f3f
000000c0: bbac 9e3d e13a 8ebd 06b2 1e3f 0270 0c3f
000000d0: ab15 9e3c 3313 9fbd ebb2 1a3f 0424 70bd
000000e0: 390a 173f 9776 1bc0 b12f 213f 40ad 4d3b
000000f0: 2455 9dbd 9881 9bbc 5e47 dd3c 74de 313f
00000100: c0ba 033f 7f3e 63bd dceb ae3c e94b 91bd
00000110: 2bc3 283f 29fb 93bd b832 ce3d 7b99 3c39
00000120: 8598 263d 9bc0 b0bc 4131 043d 2e23 083e
00000130: d51e 193f 1da8 ba3d 9cee 283f 4584 06c0
00000140: 0ace 003f fa3d 84bd 90c5 153f d018 afbd
00000150: 2cf7 f2bc 5a71 84bd b256 013f 197c 6a3b
00000160: 5a9a e6bd 11b0 0b3f 8c13 413d 9e45 003f
00000170: 4beb 183f 7cf7 003f 8631 193f 4c17 04bd
00000180: 5de9 f93e 62f8 efbd c510 503d 9ffb 173f
00000190: 89fd 113f 627f a73d 13e2 f23e 7eab 123f
000001a0: e885 fe3e d039 053f 8097 6abd 348b 0b3f
000001b0: 00b8 0cb9 d758 303d 94ad 833c e9c8 ef3e
000001c0: 4214 983b f843 083e d4a0 143f 27e9 ef3e
000001d0: cf0f 60bd b37e 68bd a3c2 283f 51fc 853d
000001e0: ceaa 0f3f 23b1 11c0 428e 213f c0ce fc3b
000001f0: 6033 9dbc 98d8 a9bd 06ae 6fbd b781 f13e
00000200: 6894 1d3f 9cb7 0dbd 5622 d6bb 2735 cfbd
00000210: 940b 273f fcd6 a8bd 0afe c4bd e7f4 dabc
00000220: 6de9 d8bd efcb 2b3d 171f 1bbd 8528 5bbd
00000230: 0f4c 333f 6f1c 543d 16ca 2d3f 344b 20c0
00000240: 0d64 3b3f 89ba 06bd bbff 2a3f 2765 a33c
00000250: b4d3 503c c4b1 0b3c 7c68 273f a30a d0bd
00000260: 24a7 02bd 7505 0c3f 200d 813c 5f37 383f
00000270: f9e6 0d3f a007 283f a087 3b3f 0c11 4e3d
00000280: 62d4 373f 2de6 f33c ee31 42bd 44bf 293f
00000290: 39fe 073f bc54 193d 93bf 353f bab4 303f
000002a0: 43f6 163f ed15 fe3e 80a4 f63c 5625 fb3e
000002b0: d8f3 4c3d 7bee cd3c 3fe4 96bd f176 173f
000002c0: 5c5c 97bd 8f84 63bd f5a4 1b3f 0f34 1b3f
000002d0: 2ecf 3cbb 6c73 46bd 0601 223f a0c5 cdbd
000002e0: 381e 353f e1c7 25c0 753d 213f 90ab a9bd
000002f0: 4023 0f3b 4f52 a93d f9a2 eabd 8933 343f
00000300: 508e d53e 130d 37bc 0afe b63d c805 813d
00000310: 8b1a 143f b981 8cbd 40c6 af3b 11d9 64bd
00000320: fc2e e4bd bc28 f03d f95e 90bd 19fb ccbd
00000330: 4a84 013f b661 a0bd f118 de3e 8494 fcbf
00000340: fe7f 153f 0abd acbd 14ea ea3e 83bb 64bd
00000350: 7401 013d 761c cfbd af05 103f de1f 8abd
00000360: 7803 fa3d ed85 093f c7ae 953c 282b 0b3f
00000370: 699c df3e 6889 d43e aada c43e 606a cdbd
00000380: 6ad7 0d3f 44d0 99bd cf2c ba3b e943 e73e
00000390: 0eec 0e3f 5615 ccbd c784 143f 270f 063f
000003a0: bc29 0c3f 03a3 153f 14a2 cbbd 4656 e83e
000003b0: 66af f2bd 47aa dfbd 1722 bebd bf62 123f
000003c0: ca97 91bd aa87 9dbd b4fe c73e bb9c 023f
000003d0: ea3f 22be bc0c 683d a172 df3e 9a4c a53d
000003e0: 0fb9 d53e ecdb 00c0 5c71 063f 061c 57bd
000003f0: 083f 2ebd 144d 62bd 4b48 523c 8948 173f
0.61541116 0.08994038 -0.02891759 -0.09344247 0.5529601 0.027563274 0.0085529685 0.068768345
-0.11579014 -0.018793816 -0.020766856 -0.032998823 0.52781427 -0.094108 0.62502384 -2.4057837
0.48143166 0.13255489 0.606749 -0.10151812 -0.0057819206 0.009711172 0.6997804 0.059058785
0.06271537 0.6286078 0.07361926 0.5062195 0.5857526 0.70577985 0.622698 0.017471964
0.6129375 0.06661615 0.014503884 0.67944473 0.49740866 -0.03596796 0.51490843 0.63188773
0.6776172 0.5632226 -0.049741462 0.66559243 0.09175311 0.02920543 -0.09288106 0.68502825
0.077477895 -0.06944824 0.6199039 0.5485841 0.019297441 -0.07767334 0.6042926 -0.058628097
0.58999974 -2.4291131 0.62963396 0.0031383783 -0.07682255 -0.018982694 0.02701157 0.6948006
0.5145683 -0.055479523 0.0213527 -0.07094557 0.659228 -0.072256394 0.100682676 0.00017986253
0.040672798 -0.021576216 0.032273535 0.1329467 0.5981267 0.09114096 0.6598909 -2.101823
0.5031439 -0.064571336 0.5850458 -0.085496545 -0.029658876 -0.064669326 0.5052291 0.0035779534
-0.11259909 0.5456553 0.047137782 0.5010623 0.5973403 0.5037763 0.5984119 -0.03224878
0.48810855 -0.11717297 0.050797243 0.5936832 0.5702749 0.08178593 0.47438106 0.57292926
0.49711537 0.5204134 -0.057273388 0.5450928 -0.00013419986 0.043053474 0.01607398 0.4683297
0.004641087 0.13307178 0.58057904 0.4685757 -0.054702576 -0.056761455 0.6592199 0.06542266
0.5612 -2.2764366 0.63107693 0.007715076 -0.019189537 -0.08293265 -0.05851557 0.47169277
0.61554575 -0.03459893 -0.006534855 -0.1011756 0.6525204 -0.0824413 -0.096187666 -0.026728107
-0.105913974 0.041942533 -0.037871446 -0.05350544 0.7003793 0.05178493 0.67886484 -2.50459
0.7319954 -0.032892738 0.66796464 0.019945694 0.012745786 0.008526269 0.65393806 -0.10158279
-0.03189768 0.54695827 0.015753329 0.7195949 0.5543056 0.65636635 0.7325382 0.050309226
0.71808445 0.029772842 -0.047410898 0.66307473 0.5312229 0.037434325 0.70995444 0.69025767
0.58969516 0.49626103 0.030107737 0.49051923 0.050037235 0.02513813 -0.07367753 0.59165865
-0.07390663 -0.05554634 0.6079858 0.6062631 -0.0028810012 -0.04844992 0.6328281 -0.100474596
0.70749235 -2.5903246 0.629844 -0.08284676 0.002184108 0.08267652 -0.11456866 0.70391136
0.41710138 -0.011172551 0.08935173 0.06299931 0.57853 -0.0686068 0.0053642094 -0.055871073
-0.11141774 0.117265195 -0.070493646 -0.100088306 0.5059248 -0.07831137 0.43378404 -1.9732823
0.58398426 -0.08434494 0.45881712 -0.055842888 0.031495526 -0.1011285 0.5625867 -0.067443594
0.12207693 0.5371998 0.018271817 0.54362726 0.4367402 0.41511083 0.38448077 -0.10030055
0.5540682 -0.07510427 0.005681611 0.45169 0.5582894 -0.09965007 0.580151 0.5236687
0.5475118 0.5845186 -0.09943023 0.4537832 -0.11849861 -0.1092115 -0.09283846 0.57181925
-0.071090296 -0.076918915 0.3906151 0.510204 -0.15844694 0.05665277 0.43642142 0.08071251
0.4174275 -2.013423 0.5251672 -0.05251696 -0.04254058 -0.05524929 0.012834619 0.59095055

fc3.bias f4 [4]
00000000: cd22 8741 9c2c fd41 6169 e7c1 bb70 cb41
16.891993 31.646782 -28.926455 25.430044
