q_network.pth (torch, 287324 bytes, 6 tensors)

fc1.weight f4 [256, 16]
000000 5f 85 8b c0 df 9f c9 c0 30 e8 9b c0 88 b9 4a 40
       -4.3600307 -6.3007655 -4.872093 3.167574
000010 96 a8 b9 c0 3d af e5 c0 62 89 98 c0 b7 b3 81 be
       -5.8018293 -7.1776414 -4.7667704 -0.25332424
000020 bd c5 ab c0 33 cc cf c0 73 de 8b c0 90 59 19 3e
       -5.367888 -6.4936767 -4.3709044 0.14975572
000030 39 a7 23 c0 08 1c 91 c0 ef 80 2c c0 0e 0d b5 40
       -2.5570815 -4.534672 -2.6953695 5.6578436
000040 18 1a 7e c0 ab fd 99 c0 9e 5a 7c c0 26 e5 21 40
       -3.9703426 -4.8122153 -3.9430308 2.529611
000050 34 57 a3 c0 57 07 c3 c0 09 ae 86 c0 4b 31 ab be
       -5.104395 -6.094646 -4.2087445 -0.33436045
000060 69 9a 94 c0 12 00 b9 c0 56 b7 82 c0 db 20 91 3e
       -4.643849 -5.7812586 -4.08488 0.2834538
000070 c6 e7 e1 bf e0 39 7d c0 2f 0b 1c c0 ac 49 ac 40
       -1.7648857 -3.9566574 -2.4381826 5.383993
000080 a4 1a 7f c0 a0 82 bb c0 41 6e 8e c0 dc 3a 7b 40
       -3.986001 -5.8596954 -4.4509587 3.9254675
000090 d6 56 b5 c0 61 31 da c0 67 47 93 c0 70 a0 9c 3d
       -5.66685 -6.8185277 -4.602466 0.076477885
0000a0 c7 b5 9f c0 75 37 de c0 27 88 82 c0 6e 61 2f 3f
       -4.9909396 -6.9442697 -4.07912 0.6850804
0000b0 cf 3a 18 c0 04 28 92 c0 20 62 1a c0 2e 13 c4 40
       -2.3785894 -4.5673847 -2.412239 6.1273413
0000c0 04 b9 5a c0 07 37 a2 c0 58 08 63 c0 47 54 3e 40
       -3.4175425 -5.069217 -3.5473843 2.973894
0000d0 1a 1c ac c0 e9 88 c3 c0 7d 51 84 c0 12 65 a4 3e
       -5.3784304 -6.1104627 -4.1349473 0.3210836
0000e0 82 c2 94 c0 9d d6 b2 c0 c3 cb 53 c0 a0 0a 29 3f
       -4.6487436 -5.588698 -3.3093116 0.6603184
0000f0 d4 1f ab bf 44 a2 52 c0 36 b5 d1 bf 1d 9c b8 40
       -1.3369088 -3.291154 -1.6383426 5.769057
000100 3b 0d 78 c0 b6 be 9f c0 7d 2f 82 c0 d1 de 37 40
       -3.8758075 -4.99203 -4.068297 2.8729746
000110 22 1a b2 c0 22 27 cc c0 4a 78 90 c0 08 dc 05 bf
       -5.56569 -6.379777 -4.5146837 -0.52288866
000120 71 f1 93 c0 04 04 bd c0 9b 1b 7f c0 95 63 8d be
       -4.623223 -5.90674 -3.98606 -0.27615038
000130 e1 10 fb bf 5f ad 5f c0 bd 60 28 c0 83 bc 9a 40
       -1.9614526 -3.4949567 -2.6309044 4.8355117
000140 58 09 6e c0 bf 26 96 c0 9d b7 74 c0 59 ea 2b 40
       -3.7193203 -4.6922297 -3.8237069 2.6861784
000150 2f 10 b0 c0 ee 44 c3 c0 26 35 8a c0 77 fe ee bd
       -5.5019755 -6.1021643 -4.318988 -0.11669629
000160 ab 5b 9b c0 1c e2 ae c0 a4 ff 64 c0 16 6d 82 3e
       -4.85494 -5.4651012 -3.578103 0.2547385
000170 00 53 bd bf e6 1a 54 c0 62 1a ef bf 7b 43 ab 40
       -1.4790955 -3.3141418 -1.8679926 5.3519874
000180 55 cd 58 c0 16 7a 95 c0 a3 ac 7d c0 24 bb b3 3f
       -3.3875325 -4.671153 -3.963662 1.4041486
000190 bf 85 9c c0 a6 5a c5 c0 e4 bd 9d c0 4b 3d a5 bf
       -4.8913264 -6.1673155 -4.92943 -1.290933
0001a0 d2 5f 8b c0 b5 08 cb c0 18 62 88 c0 45 4c 0b bf
       -4.355447 -6.344813 -4.2619743 -0.54413253
0001b0 53 84 e7 bf af 66 81 c0 a0 38 11 c0 28 f4 89 40
       -1.8087257 -4.0437846 -2.269081 4.311054
0001c0 98 07 7a c0 1e ce a4 c0 4e 51 93 c0 6f 02 54 3f
       -3.9067135 -5.150161 -4.603675 0.82816213
0001d0 7e db a9 c0 53 f2 c1 c0 65 d2 a6 c0 da b1 00 c0
       -5.3080435 -6.0608306 -5.213183 -2.0108552
0001e0 a8 cf af c0 c1 8a bf c0 39 90 c7 c0 ec 5a ca bf
       -5.4940987 -5.9856877 -6.2363553 -1.5808997
0001f0 9a c7 21 c0 0b b2 9b c0 a9 59 6d c0 67 b0 2e 40
       -2.5278077 -4.8654838 -3.7085974 2.7295167
000200 9d d4 5b c0 5f eb a4 c0 00 58 5e c0 6c 0e 4c 40
       -3.434852 -5.153732 -3.474121 3.1883802
000210 c9 d3 94 c0 2c 88 bf c0 dc 7f 81 c0 11 07 fd 3e
       -4.6508527 -5.9853725 -4.046858 0.49419454
000220 19 5d 9f c0 92 66 c0 c0 3a d3 6e c0 bc 7e 2d 3f
       -4.9801145 -6.012521 -3.7316422 0.67771506
000230 0a 19 04 c0 eb 1d 56 c0 f5 a3 0b c0 48 ed c3 40
       -2.0640283 -3.345576 -2.1818821 6.122715
000240 f5 3b 65 c0 f3 4e 94 c0 e4 e6 6a c0 df 89 42 40
       -3.5817845 -4.6346374 -3.6703424 3.039665
000250 a7 4b a3 c0 8c 76 d3 c0 56 a5 91 c0 22 a1 1a be
       -5.102985 -6.608221 -4.5514326 -0.1510053
000260 ea 78 8a c0 07 16 b3 c0 7c 7c 6e c0 77 a6 11 3f
       -4.32726 -5.596439 -3.726348 0.5689463
000270 53 8d a9 bf df 7e 61 c0 03 2a 03 c0 3e a4 b0 40
       -1.3246254 -3.5233686 -2.0494392 5.520049
000280 97 4a 63 c0 4c df 93 c0 e0 b1 65 c0 d1 01 f6 3f
       -3.5514276 -4.621008 -3.5889816 1.9219304
000290 7f de a3 c0 94 93 c7 c0 6c 1b 98 c0 f3 f6 2f bf
       -5.12091 -6.236765 -4.7533474 -0.6873619
0002a0 b0 0c 93 c0 53 7c b9 c0 24 17 88 c0 13 b7 15 bf
       -4.595299 -5.7964263 -4.252825 -0.58482474
0002b0 f3 d6 11 c0 ef 5d 86 c0 f2 c4 2a c0 d8 12 9d 40
       -2.2787445 -4.1989665 -2.6682706 4.9085503
0002c0 72 66 4e c0 d4 38 93 c0 c3 ef 84 c0 3a 72 95 3f
       -3.2250028 -4.600687 -4.154268 1.1675484
0002d0 67 d8 a7 c0 fb 70 c3 c0 84 c8 96 c0 ae fe f2 bf
       -5.2451663 -6.1075416 -4.711977 -1.8983972
0002e0 6e 94 9b c0 a0 a6 d7 c0 36 5d 86 c0 e9 37 d2 be
       -4.861869 -6.73909 -4.1988783 -0.4105828
0002f0 d0 71 03 c0 88 54 7a c0 61 5b 10 c0 bd e7 90 40
       -2.0538216 -3.9114094 -2.2555773 4.5282884
000300 bc 1d 7c c0 37 bc 8d c0 27 66 94 c0 b4 51 80 3f
       -3.9393148 -4.4292254 -4.63747 1.0024934
000310 24 1a 97 c0 8e 19 bb c0 ae 05 95 c0 0a 00 f1 bf
       -4.721941 -5.8468695 -4.6569433 -1.8828137
000320 5f 9a 99 c0 ad 38 a4 c0 ba ec bc c0 88 32 e9 bf
       -4.800094 -5.1319184 -5.9038973 -1.8218546
000330 a6 c3 35 c0 ae f5 a1 c0 58 a0 8d c0 ff 66 27 40
       -2.8400664 -5.06124 -4.425823 2.6156614
000340 11 84 81 c0 91 52 a8 c0 bb e4 78 c0 9b 15 84 3f
       -4.0473714 -5.260079 -3.8889606 1.0319093
000350 94 05 96 c0 d1 81 bc c0 68 f0 a7 c0 26 c4 df bf
       -4.688181 -5.8908467 -5.2480965 -1.7481735
000360 89 61 9d c0 e7 cd c3 c0 3c 4a 89 c0 d2 20 5c bf
       -4.918156 -6.1188846 -4.290312 -0.8598758
000370 02 8c 2d c0 28 70 8a c0 1f 4e 1c c0 e4 c8 82 40
       -2.7116704 -4.326191 -2.4422681 4.087023
000380 64 2c 89 c0 72 67 ba c0 96 82 92 c0 e3 7d 6e 40
       -4.286669 -5.8251276 -4.5784407 3.7264335
000390 e9 56 b4 c0 7f 40 d4 c0 eb a7 92 c0 52 87 53 be
       -5.635609 -6.632873 -4.582998 -0.2065709
0003a0 fa 39 af c0 a2 43 e0 c0 de d3 81 c0 a1 9a 6a 3e
       -5.475827 -7.008256 -4.0571127 0.22910549
0003b0 ad 2f 25 c0 e6 ce 8f c0 24 3b 32 c0 95 af c0 40
       -2.581035 -4.494006 -2.7848597 6.0214334
0003c0 e2 78 67 c0 82 ff b7 c0 26 45 80 c0 4f 5d 74 40
       -3.616753 -5.74994 -4.008441 3.818195
0003d0 21 f6 c3 c0 fb ca de c0 09 f1 89 c0 e7 93 d6 3e
       -6.123795 -6.962278 -4.310673 0.41909716
0003e0 35 d2 9f c0 7d ec d3 c0 ff 15 6d c0 12 3c 8e 3f
       -4.99441 -6.622618 -3.7044675 1.1112082
0003f0 6d 39 ff bf ea a8 7a c0 09 f3 e8 bf 9c ef d0 40
       -1.99394 -3.9165597 -1.8199168 6.529249

fc1.bias f4 [256]
000000 2c 22 45 41 40 7e 7e 41 04 6a 44 41 88 5f 85 41
       12.320843 15.905823 12.275883 16.671646
000010 f8 2e 80 41 fa eb 82 41 76 9f 83 41 a7 b9 6e 41
       16.022934 16.365223 16.452862 14.920325
000020 dc a9 8c 41 42 ef 84 41 ad 3f 84 41 42 37 7c 41
       17.58294 16.616825 16.531092 15.763491
000030 ca 2a 79 41 0e c3 7a 41 92 f1 48 41 d0 a7 52 41
       15.572947 15.672621 12.558977 13.16597
000040 c5 a2 52 41 65 aa 80 41 16 0d 54 41 53 75 78 41
       13.164739 16.0832 13.253195 15.528644
000050 49 25 87 41 b5 61 81 41 a7 45 83 41 f4 4d 83 41
       16.893206 16.172709 16.40901 16.413063
000060 bf d8 4f 41 b3 d0 41 41 40 e8 4a 41 c6 70 80 41
       12.990417 12.113452 12.681702 16.055065
000070 1f 6b 3e 41 e0 e7 81 41 86 c6 7e 41 5c 3e 7e 41
       11.901153 16.23822 15.923468 15.890224
000080 06 21 3e 41 e5 47 82 41 c0 01 50 41 33 0f 5c 41
       11.883062 16.285105 13.000427 13.753711
000090 55 cb 7a 41 0a 75 79 41 2f 56 80 41 94 e6 82 41
       15.674642 15.591074 16.042082 16.362587
0000a0 78 92 7b 41 3a a8 7d 41 cd d5 76 41 ce 98 81 41
       15.723259 15.853571 15.427197 16.199612
0000b0 06 6e 58 41 a4 35 75 41 21 29 7e 41 fa eb 82 41
       13.526861 15.325596 15.885041 16.365223
0000c0 7e d8 49 41 a9 6c 6e 41 5b 7a 85 41 d9 db 82 41
       12.615355 14.901528 16.684744 16.357347
0000d0 23 5e 7b 41 bc c3 7b 41 61 0c 7d 41 fb 34 7f 41
       15.710483 15.735287 15.815522 15.950435
0000e0 4a f3 51 41 d7 28 83 41 eb d6 7b 41 3f 0c 82 41
       13.121897 16.394941 15.73997 16.25598
0000f0 31 73 49 41 36 c2 41 41 1c 64 79 41 29 5b 3f 41
       12.590623 12.109915 15.586941 11.959756
000100 e6 e0 7d 41 bb fc 77 41 56 91 82 41 5c 87 7f 41
       15.867407 15.499202 16.320965 15.970547
000110 f5 69 84 41 ac b5 83 41 1a 11 76 41 f0 2a 83 41
       16.551737 16.463707 15.379175 16.395966
000120 21 38 53 41 0c 69 48 41 a5 56 87 41 d2 0a 47 41
       13.201203 12.525646 16.917307 12.440142
000130 69 54 3b 41 68 a6 79 41 1f ae 3b 41 55 a2 81 41
       11.708108 15.603127 11.73001 16.204264
000140 5c be 3f 41 cc c0 73 41 da df 3e 41 7a bf 50 41
       11.983974 15.23457 11.929651 13.046747
000150 e0 6d 7c 41 a3 81 7d 41 c1 b6 77 41 b2 cf 4b 41
       15.776825 15.84415 15.482118 12.738207
000160 a3 c7 71 41 93 08 82 41 8a 8c 7a 41 a7 38 82 41
       15.111239 16.254187 15.659311 16.277662
000170 f6 e4 7c 41 3e 3b 80 41 48 67 7d 41 e7 cf 72 41
       15.805899 16.028927 15.837715 15.175757
000180 0b d1 7c 41 c4 fb 55 41 65 c1 7e 41 c7 de 80 41
       15.801036 13.373966 15.922215 16.108778
000190 63 8c 86 41 78 94 80 41 34 b6 40 41 7a cc 3d 41
       16.818548 16.072495 12.044483 11.862421
0001a0 59 6f 80 41 d4 f1 41 41 68 4c 82 41 ee aa 88 41
       16.054369 12.12154 16.287308 17.083462
0001b0 7d d8 83 41 3f 45 4c 41 83 8f 4d 41 5b 55 83 41
       16.480707 12.766906 12.847537 16.416677
0001c0 a7 79 3c 41 d1 39 84 41 c9 af 49 41 89 3f 40 41
       11.7797 16.52823 12.605416 12.0155115
0001d0 be 85 81 41 6c 19 53 41 0d f6 3f 41 73 6a 3e 41
       16.190304 13.1937065 11.997571 11.900989
0001e0 03 5f 40 41 7b ad 49 41 6c ec 46 41 b8 28 4f 41
       12.023196 12.604854 12.43272 12.947441
0001f0 1f 3e 41 41 74 b7 81 41 13 d3 7a 41 6a 29 52 41
       12.077666 16.214577 15.676532 13.135111
000200 28 de 41 41 c1 ae 83 41 4b 12 58 41 0b fc 44 41
       12.116737 16.46033 13.504466 12.311534
000210 dc bd 7c 41 67 3a 3b 41 15 ad 73 41 bb 9b 81 41
       15.796352 11.701758 15.229756 16.20104
000220 2c f1 40 41 30 4e 45 41 c5 a9 81 41 50 55 7d 41
       12.05888 12.331589 16.207895 15.833328
000230 13 16 41 41 e3 26 3a 41 2b 30 87 41 ce 78 4e 41
       12.067889 11.634494 16.89852 12.904493
000240 13 cb 3e 41 dc b9 82 41 28 5b 82 41 d0 5b 80 41
       11.924579 16.340752 16.29451 16.04483
000250 a9 c5 81 41 ad 23 4d 41 0c 6c 81 41 7c ed 71 41
       16.221514 12.82121 16.177757 15.12048
000260 28 18 51 41 ff 23 7b 41 90 eb 81 41 fc 97 84 41
       13.0683975 15.696288 16.24002 16.574211
000270 e9 7c 89 41 d4 01 77 41 29 7c 7f 41 eb 41 54 41
       17.185991 15.437946 15.967813 13.266093
000280 8d 19 4e 41 7c d1 81 41 0f 5f 86 41 81 c2 7d 41
       12.881238 16.227287 16.796415 15.859986
000290 38 74 45 41 8f ea 82 41 ab 69 3e 41 17 9b 4c 41
       12.340874 16.36453 11.900798 12.787864
0002a0 ac e7 54 41 ba 30 69 41 99 95 4d 41 aa a5 3e 41
       13.3065605 14.574396 12.849023 11.915445
0002b0 fc 86 3f 41 dd cf 40 41 4b 2e 46 41 ab 82 3e 41
       11.970455 12.050748 12.386302 11.906901
0002c0 a7 74 80 41 d6 55 42 41 9d 9e 73 41 3f 82 4e 41
       16.05696 12.145956 15.226224 12.906798
0002d0 c7 f5 49 41 fa 83 82 41 d9 26 81 41 0a dc 4a 41
       12.622504 16.314442 16.143969 12.67872
0002e0 5a c1 87 41 40 22 79 41 4e 88 7b 41 33 d0 44 41
       16.96941 15.570862 15.7207775 12.30083
0002f0 06 28 3d 41 0a 1c 6e 41 49 88 57 41 a3 3b 4f 41
       11.822271 14.881845 13.470773 12.95206
000300 03 54 82 41 b0 35 6b 41 27 be 50 41 8b 4a 74 41
       16.291021 14.700607 13.046424 15.268199
000310 df 51 69 41 80 7f 49 41 ed 4d 79 41 b1 79 3e 41
       14.582488 12.593628 15.581525 11.90471
000320 b7 d7 3b 41 88 09 81 41 8a 74 79 41 a9 5d 4f 41
       11.740165 16.129654 15.590952 12.960366
000330 e6 91 7b 41 62 a7 74 41 b7 75 88 41 15 a5 7f 41
       15.72312 15.290865 17.057478 15.977803
000340 9b e3 3c 41 29 43 40 41 84 25 3d 41 b8 4c 4d 41
       11.805568 12.0163965 11.821659 12.83123
000350 0b 1f 77 41 cb 9b 4e 41 6c 69 7d 41 e1 f6 82 41
       15.445079 12.913035 15.838238 16.370546
000360 58 ad 41 41 b2 af 83 41 ae 07 42 41 fa d8 83 41
       12.10482 16.460789 12.126875 16.480946
000370 7a 8c 81 41 fe 9f 80 41 ab a6 81 41 9d b0 87 41
       16.193592 16.078121 16.20638 16.961237
000380 cc dc 4f 41 04 96 4c 41 c8 ca 48 41 6f 9c 46 41
       12.9914055 12.786625 12.549507 12.413192
000390 68 4e 82 41 04 e2 82 41 2d eb 81 41 ce 1b 82 41
       16.288284 16.36036 16.239832 16.263577
0003a0 9a 95 81 41 b0 56 82 41 31 c6 80 41 70 b2 81 41
       16.198048 16.292328 16.096773 16.212128
0003b0 24 53 44 41 a7 14 82 41 0c 7d 7c 41 d5 91 4d 41
       12.270298 16.260084 15.780529 12.848104
0003c0 c6 04 45 41 de e8 80 41 95 4b 54 41 93 72 7e 41
       12.313665 16.113705 13.268453 15.902972
0003d0 9c c4 53 41 99 b1 58 41 ba dc 88 41 5b 1c 44 41
       13.2355 13.543359 17.107777 12.256923
0003e0 99 a4 3d 41 92 19 84 41 a2 8a 40 41 4a fa 6e 41
       11.852685 16.512486 12.033846 14.936106
0003f0 99 5f 80 41 a6 a2 82 41 df 12 82 41 bb 52 41 41
       16.046679 16.329418 16.259214 12.082698

fc2.weight f4 [256, 256]
000000 2f d3 61 bd 7b 62 bb 3d af 03 03 bd c1 5d 4f 3e
       -0.05513304 0.09149643 -0.031985935 0.20250608
000010 f5 f4 dc 3d 47 db 74 3e ea 15 47 be df c3 81 bd
       0.10788909 0.23911773 -0.19441953 -0.063361876
000020 d6 b3 2d 3e 64 34 e7 3e 69 e8 2c be 5a 08 5c 3e
       0.16963133 0.45157158 -0.16885532 0.21487561
000030 f9 ca e0 bc 43 2c e5 bc 4a 1a 81 bd ef ff 68 be
       -0.027440535 -0.027975207 -0.06303842 -0.22753881
000040 b9 86 f0 bd 3a 75 04 be 5c 42 9e bd 14 7c f7 3d
       -0.11744446 -0.12935343 -0.07727501 0.12084213
000050 b2 11 b6 3e 05 bb 68 bd 13 ff 58 bd ca 5e 3f 3e
       0.35560375 -0.05681898 -0.052977633 0.18688503
000060 83 db 6d bd 9d c1 fd bd 8d b9 e1 bc a3 43 0d be
       -0.05807067 -0.123904444 -0.027554298 -0.13795333
000070 19 f8 74 bc 45 23 d1 bd ce e1 a2 3b e8 c5 87 3e
       -0.014951729 -0.10211805 0.0049707657 0.26518178
000080 91 ad d6 bc e0 2e 39 3e 91 b2 03 bd c0 ab 57 bd
       -0.02620581 0.18084288 -0.032152716 -0.052654028
000090 91 f4 68 3d c1 af 88 3d 80 6c a5 3e 04 a5 20 3e
       0.05687386 0.066741474 0.3230934 0.15687948
0000a0 1a c3 bf 3d 06 56 f7 bd 29 4e 54 3d 11 e8 02 be
       0.093633845 -0.120769545 0.05183235 -0.12783839
0000b0 f1 54 27 bc 50 54 11 3e dd d6 e5 3b 14 96 a8 3d
       -0.010213123 0.14192319 0.007014139 0.0823175
0000c0 b3 2f 69 bd ef 28 74 be 6d 2e c8 3e 40 2c 19 be
       -0.056930255 -0.2384374 0.3909792 -0.14958286
0000d0 98 43 43 be 00 0a 46 3e 12 46 99 3c 15 ca 99 3e
       -0.19068754 0.19339752 0.01871017 0.3003699
0000e0 d4 22 09 bc 19 f1 99 3e ca 7b b1 bd fb 44 d9 3d
       -0.00837012 0.30066755 -0.08666189 0.1060886
0000f0 1c 11 35 3c cf 24 87 bd d9 dc d8 bc b6 4e 8e bd
       0.0110514425 -0.065988176 -0.026472496 -0.06948607
000100 58 79 bb 3d db 72 17 be fb 0b 27 bd f1 b7 0f 3d
       0.09154004 -0.14789908 -0.04078291 0.03508753
000110 7a 85 b1 3e 22 f1 95 3e 9d da 7f 3c 85 98 16 be
       0.34672147 0.29285532 0.015616086 -0.14706619
000120 73 69 b5 3b 2c 46 f2 3b 88 da 8a 3e d4 42 ff bc
       0.005536252 0.007393619 0.2711985 -0.031159796
000130 65 47 0a 3e c7 17 fc 3c 06 32 b6 bd 76 8c 22 be
       0.13503797 0.030773057 -0.0889626 -0.15873894
000140 8f 47 94 3d 68 37 9f 3d a2 25 1c 3d ea 48 cf bd
       0.07240211 0.0777424 0.038121827 -0.10121329
000150 e6 ad d4 bd 6b c9 db 3e 14 9d 0d be ff a1 93 bd
       -0.10384731 0.42927107 -0.13829452 -0.07208633
000160 41 0f c2 bc bf e5 f9 3e 16 33 83 bd b0 f1 50 3e
       -0.023688914 0.48808095 -0.06406228 0.20404696
000170 15 b0 bd bd 90 27 c9 3d 2d 09 8f be dd 0b d9 3d
       -0.092621006 0.09821999 -0.27936688 0.10597966
000180 88 fe a0 3e 51 33 b0 bd 18 72 34 3c 5c 11 5b be
       0.31444192 -0.08603538 0.01101353 -0.21393341
000190 55 59 37 3e a5 de 42 bd f1 d7 0b be 7f 46 3e 3d
       0.17905171 -0.04757561 -0.13656594 0.04645395
0001a0 1b 35 09 3e 32 b4 87 bd 25 d1 b3 3e a7 64 da bd
       0.13399164 -0.066261664 0.35120502 -0.10663729
0001b0 c7 f8 0c 3e 83 88 31 be a7 2a 72 bd 65 84 0c be
       0.13766776 -0.17337231 -0.059122708 -0.1372238
0001c0 22 89 b2 3d 06 66 77 3e 12 8a 12 be c3 3c 37 3c
       0.08717562 0.24160013 -0.14310482 0.01118392
0001d0 23 0a 87 3e 97 02 09 be ba 2a e0 bd f3 08 64 bd
       0.2637492 -0.13379894 -0.109456494 -0.055672597
0001e0 35 06 7b bd 2f 0c bb bd e0 37 bf bd 5a ec 3a 3d
       -0.061285216 -0.09133183 -0.09336829 0.04563556
0001f0 20 70 0c bd ab 9e 16 3e 96 25 0a be 35 24 0b be
       -0.03428662 0.14708965 -0.134909 -0.1358803
000200 e3 5a 3c bd 66 e9 c9 3e 84 e1 c9 3a a3 33 48 bc
       -0.045985114 0.3943588 0.0015402292 -0.012219342
000210 71 c8 58 3d 34 0e 4a be 54 d0 99 bc a2 e1 04 3e
       0.05292553 -0.1973198 -0.018776096 0.12976697
000220 7a a7 9c bd 91 d9 98 bd 5f de 35 3e df 19 2b be
       -0.07649131 -0.074633725 0.17760609 -0.16709088
000230 b7 33 30 3b 98 16 6b 3e 19 5f c0 3e 00 40 17 be
       0.0026886293 0.22957838 0.37572554 -0.14770508
000240 86 4d af bd d1 05 bc 3e 56 e3 e6 3d f3 3b 35 be
       -0.08559708 0.36723188 0.1127383 -0.1769865
000250 e8 9b b9 3c d0 73 34 be eb ff 57 3e 58 1f 04 be
       0.02265735 -0.17622304 0.21093719 -0.12902582
000260 32 af 9a bd 1a 69 19 bc 59 30 f4 3d e3 3b c8 3e
       -0.07552947 -0.009363437 0.11923284 0.3910819
000270 c6 89 1e 3c 1b b4 c6 3d a3 94 ff bd 44 3a 95 3d
       0.009676402 0.09702321 -0.12479522 0.07286504
000280 44 e7 c6 bd 01 63 b1 3c 13 d6 36 3e 46 e8 89 bd
       -0.09712079 0.021653654 0.178551 -0.06733756
000290 94 d7 b2 bd 5d ba 06 3e d2 ee 9c bd b4 e8 0e bd
       -0.087325245 0.1315703 -0.07662739 -0.03488989
0002a0 fc da 4f be 3d fb 85 3e 25 6f e8 bc dc 9e 8a bd
       -0.2029838 0.26168242 -0.02837331 -0.06768581
0002b0 dd 65 a7 bd 54 56 5d bc 88 28 03 3d af ca af bd
       -0.08173726 -0.013509352 0.032021075 -0.08583581
0002c0 91 67 9e 3d 1b 31 6e bd 2e 2c 3a 3c 6d 18 49 be
       0.077345975 -0.0581523 0.011363072 -0.19638224
0002d0 1f ef 09 bd 10 3e 85 3e 01 81 d7 bd c4 09 7c bc
       -0.03367531 0.26023912 -0.105226524 -0.015383188
0002e0 a2 e1 f3 3d 20 96 9e bd ee d8 40 bd ff 83 96 bd
       0.119082704 -0.07743478 -0.04708188 -0.07349395
0002f0 43 39 89 bc f0 ac 6b bd 3c 74 b5 bd ca c6 cd 3c
       -0.016750937 -0.057537973 -0.088600606 0.025119204
000300 40 c1 53 3e 9e d5 7a 3e 3e 79 a8 bd ac f1 34 3e
       0.20679188 0.24495551 -0.0822625 0.17670316
000310 7d 65 84 3e 62 3f 51 3d e5 d9 8b 3e d5 8c bf bd
       0.2585868 0.051085837 0.27314678 -0.093530335
000320 51 59 e8 bd d0 13 44 3e 25 e6 18 3e 35 d6 f0 bd
       -0.11345161 0.19148183 0.14931543 -0.11759607
000330 39 34 2e 3c 0a 6e af 3d 20 15 53 3e d7 1c 98 3e
       0.010632568 0.0856591 0.20613527 0.29709503
000340 79 72 76 bd fc 98 72 3d f9 84 78 bc 78 7d 72 bd
       -0.060167763 0.05922793 -0.015168422 -0.059201688
000350 5c 68 8a bd 0a 51 8b bd fa d4 a6 3c 01 e3 5e 3e
       -0.06758186 -0.06802566 0.020365227 0.21766283
000360 1e 3d e1 bd 0a b3 ad 3e f4 f6 8a 3c 81 65 18 3e
       -0.10997985 0.33925658 0.01696346 0.1488247
000370 25 f7 5d 3e 92 f4 3c 3e 8d 08 9e 3e 7f 68 f8 bd
       0.2167631 0.18452671 0.308659 -0.12129306
000380 71 76 cb bd bf 11 07 be d6 ad 68 bd 9c e6 f5 bd
       -0.099347 -0.13190363 -0.056806408 -0.12006876
000390 10 97 c3 3e 40 3a 43 3e c7 10 b2 3e d7 68 29 3e
       0.3820119 0.1906519 0.34778425 0.165439
0003a0 42 c8 b1 3d ad 0d f1 3d e1 91 4f 3e 39 fb 49 3e
       0.08680774 0.117701866 0.20270492 0.1972474
0003b0 f6 c0 3b bd cf 5b e2 3e d9 71 03 3e b1 f3 5e 3d
       -0.04583832 0.4421067 0.12836398 0.05443162
0003c0 06 ec a1 bd f7 4f 11 3e 23 36 c7 3c e4 b1 54 3e
       -0.07906346 0.1419066 0.024317807 0.20770985
0003d0 72 16 2d be b1 64 c7 3c 7f c6 38 3e e8 7f 4a bd
       -0.16903093 0.024340006 0.1804447 -0.049438387
0003e0 16 90 1f bd 1f 04 08 3f 70 9b 92 3e 78 d7 05 3e
       -0.03895577 0.5313129 0.28634214 0.13070476
0003f0 57 7f 15 bd 60 99 11 3e 34 e6 0d be 23 c7 fe bc
       -0.036498394 0.14218664 -0.13857347 -0.031100815

fc2.bias f4 [256]
000000 dc 52 9c 3f 02 5b 21 41 76 b3 20 41 d7 eb d0 40
       1.2212787 10.084719 10.043814 6.528789
000010 9a ce ee bd d8 3c 21 41 d2 3c 20 41 98 53 39 bd
       -0.116605 10.077354 10.014849 -0.045245737
000020 ac a9 88 bf 7f f3 00 be 06 4d 21 be 17 4b 60 bf
       -1.067678 -0.12592886 -0.15752038 -0.8761458
000030 84 9b 1f 41 7d 68 c4 bd 9c f3 20 41 a6 64 eb 3e
       9.975468 -0.09590242 10.059475 0.45975226
000040 91 a5 21 41 7a fa 1d 41 3b 75 21 41 d0 f1 1e 41
       10.1029215 9.8736515 10.091121 9.934036
000050 73 0e 72 40 e1 59 7b 40 7d d6 20 41 a5 f8 1f 41
       3.782132 3.9273608 10.052365 9.998204
000060 9e 0d 21 41 f6 11 20 41 4d 63 22 41 fe 99 20 41
       10.0658245 10.004385 10.149243 10.037596
000070 82 33 66 bd 8e 6e 21 41 4d 8e 06 be 23 8c 21 41
       -0.056201465 10.089491 -0.13140221 10.096713
000080 5b fa e1 bd 73 e6 21 41 51 f7 21 41 98 ac 97 3e
       -0.1103408 10.118762 10.12288 0.29623866
000090 ee 64 21 41 f7 13 18 40 a2 44 19 be a5 93 d1 bd
       10.087141 2.3762186 -0.14967588 -0.10233239
0000a0 91 88 1f 41 56 4e 1f 41 37 b1 1f 41 84 56 b7 40
       9.970841 9.956625 9.980765 5.729311
0000b0 25 cc 1e 41 e8 e1 78 bd ce 5c 1f 41 6d 70 1f 41
       9.92484 -0.060762316 9.960157 9.964948
0000c0 45 38 21 41 7d 2b 22 41 76 42 39 be a2 d4 20 41
       10.076238 10.135617 -0.18091759 10.051912
0000d0 56 49 21 41 71 f7 1f 41 10 f1 ab bc 67 45 22 41
       10.080404 9.9979105 -0.020988971 10.141944
0000e0 93 67 20 41 19 82 3f 3f 20 24 cf 40 24 db b2 bd
       10.025287 0.7480789 6.47316 -0.08733204
0000f0 6f 80 20 41 16 c6 1f 41 0b 44 88 bd d4 b0 20 41
       10.031356 9.985861 -0.06653603 10.043171
000100 59 88 21 41 85 5b 20 41 10 3e 1e 41 6e f8 1e 41
       10.095788 10.022344 9.890152 9.935652
000110 14 d4 20 41 be bb a8 bd d1 03 fd bd a7 b4 1f 41
       10.051777 -0.08238934 -0.123542435 9.981605
000120 26 07 8f 40 46 72 20 41 73 79 1f 41 a7 91 09 bd
       4.4696226 10.027899 9.967151 -0.03358617
000130 de 08 20 41 0b c1 1e 41 51 13 20 41 b1 23 85 3f
       10.002165 9.92213 10.004716 1.0401517
000140 c7 ce 22 41 4a 2d 0c be fe 30 22 41 8f 85 ec 40
       10.175483 -0.13689151 10.136961 7.3913035
000150 d9 60 1f 41 4a 3d 21 41 f4 73 20 41 ad b6 96 40
       9.961144 10.077463 10.028309 4.7097993
000160 9b ca 2d 40 12 bd a7 40 26 12 20 41 a5 1a 20 41
       2.715491 5.24183 10.004431 10.006505
000170 ff cc 1e 41 8e d8 1d 41 6b d4 48 3f 17 96 20 41
       9.925048 9.86537 0.78449124 10.036643
000180 12 38 d7 bd d2 17 21 41 22 c1 1d 41 72 30 20 41
       -0.105087414 10.0683155 9.859652 10.011827
000190 72 86 1e 41 96 8e 20 41 cd 5f 1f 41 01 db d8 bd
       9.907824 10.034811 9.960889 -0.10588647
0001a0 d0 c4 21 41 a3 55 98 bd c9 df 1f 41 b3 f4 1f 41
       10.11055 -0.07438209 9.992135 9.997241
0001b0 de ff 1d 41 b9 d3 0e 41 2e de d2 bc d0 b8 1e 41
       9.874968 8.92669 -0.02574071 9.92012
0001c0 d8 41 c3 bd 85 c1 17 41 86 86 1e 41 ae f8 21 41
       -0.09534043 9.484746 9.907843 10.123213
0001d0 06 72 ba 3f a0 23 20 41 ed 93 20 41 13 4c 20 41
       1.4566047 10.0086975 10.036115 10.018573
0001e0 64 40 20 41 4b e4 1e 41 21 6a 22 41 75 a8 20 41
       10.01572 9.930736 10.15091 10.041127
0001f0 16 2f 22 41 0a 2f 1e 41 84 18 23 41 77 82 1e 41
       10.136496 9.886484 10.193485 9.906852
000200 58 a9 21 41 7a 4b 28 be 2f 95 20 41 13 cd 1e 41
       10.103844 -0.16435042 10.036422 9.925067
000210 28 98 20 41 6f 0b 20 41 fb 1f 21 41 a3 f6 10 41
       10.0371475 10.002791 10.070308 9.060214
000220 1d ee 23 41 17 fd 21 41 fa 7c 1f 41 14 b5 21 41
       10.245633 10.1242895 9.968012 10.106709
000230 da 5d 1f 41 bd d2 1d 41 a3 e7 21 41 a0 c6 1f 41
       9.960413 9.86395 10.119052 9.985992
000240 7c e4 ab bc 0f ee f0 40 68 b0 b9 bd 42 f1 1f 41
       -0.020982973 7.52906 -0.0906685 9.996401
000250 e9 5b cb 3f 19 59 21 41 c5 15 21 41 17 2a 22 41
       1.5887424 10.084252 10.067815 10.135276
000260 4c 03 28 40 74 78 21 41 8b 81 1e 41 21 7b 0e 41
       2.6252012 10.0919075 9.906627 8.905061
000270 83 79 1f 41 e5 04 21 41 0f a3 20 41 6f 1a 21 41
       9.967166 10.063695 10.039809 10.0689535
000280 69 e6 21 41 1b 0d 21 41 af 2d 1f 41 38 9f 20 41
       10.1187525 10.0657 9.948653 10.038872
000290 47 0e e0 bf 6e 0e f7 bd c2 ea 20 41 82 78 20 41
       -1.7504357 -0.12063299 10.057314 10.029421
0002a0 d0 eb 1f 41 6c 39 1f 41 14 1c aa bf e2 55 20 41
       9.995071 9.951519 -1.3289819 10.0209675
0002b0 d9 d5 20 41 aa 07 81 bd c8 90 80 bf 5f 73 1e 41
       10.052209 -0.0630029 -1.0044184 9.903167
0002c0 de 3f 1f 41 21 60 21 41 f4 2e 20 41 d3 f0 1e 41
       9.953093 10.085969 10.011463 9.933795
0002d0 7d 94 20 41 bd 22 6b bd 0c 78 05 be 2d c5 1f 41
       10.036252 -0.057406176 -0.13034075 9.985639
0002e0 88 0b 20 41 87 81 1f 41 44 e1 20 41 28 0e 1f 41
       10.002815 9.969123 10.0549965 9.940956
0002f0 b3 bf 15 be a6 64 22 41 a0 e1 21 41 9a 7e 1f 41
       -0.14623909 10.149572 10.117584 9.968409
000300 2c a0 21 41 bd fd 21 41 01 79 1f 41 07 08 26 40
       10.101604 10.124448 9.967042 2.59424
000310 cc 3e 22 41 d2 89 21 41 7a 4e 1f 41 8c dd fc bd
       10.140331 10.096148 9.956659 -0.12346944
000320 a4 47 ea bd 7a ac 1f 41 3a ca 1f 41 9a a9 fa 3e
       -0.114394456 9.979609 9.986872 0.4895752
000330 1f 24 85 bc ee c3 20 41 6a db 21 41 d6 46 5a 40
       -0.016252575 10.047834 10.116068 3.4105735
000340 fb 5b 20 41 be 21 1f 41 b9 37 1f 41 25 61 15 41
       10.022456 9.945738 9.951104 9.336217
000350 f0 b1 dc bd 23 aa 6b 3f ad 11 de bd bf f9 c2 bd
       -0.107761264 0.92056483 -0.10843215 -0.095202915
000360 a2 86 1f 41 8c f7 21 41 62 f7 21 41 03 40 10 41
       9.970369 10.122936 10.122896 9.015628
000370 8e 2d 47 40 f2 b0 21 41 02 41 22 41 c1 2e 22 41
       3.1121554 10.1057 10.140871 10.136415
000380 99 9a 1e 41 61 37 20 41 91 04 20 41 17 7e c6 40
       9.912744 10.01352 10.001115 6.202892
000390 f4 3f 20 41 fe 30 c3 bd e9 e0 1f 41 6d c7 ae bb
       10.015614 -0.09530829 9.99241 -0.005333832
0003a0 f1 96 1f 41 83 1c 20 41 b6 d3 e2 bd 47 a2 23 41
       9.974351 10.006961 -0.11075537 10.2271185
0003b0 8d 78 1f 41 fc 47 1e 41 fe 59 96 bd c8 74 15 41
       9.966931 9.892574 -0.073413834 9.341011
0003c0 4f 61 1e 41 3e d6 1e 41 41 fd ab 3f d5 f7 22 41
       9.898757 9.927305 1.3436662 10.185506
0003d0 c4 3b 21 41 e4 86 15 be 81 f2 1f 41 9f 9b 4a 40
       10.077091 -0.14602238 9.996705 3.1657484
0003e0 ae 1a 06 be 8e 7e 21 41 1b 21 e3 40 9b 2b b7 bd
       -0.13096115 10.093397 7.097791 -0.08943864
0003f0 a2 4e 56 be 57 2f 21 41 7d 8d 1f 41 86 ba 20 41
       -0.20928434 10.074058 9.972043 10.045538

fc3.weight f4 [4, 256]
000000 d2 ae 44 bf bd 83 42 3f 40 07 50 3f 5d c0 e5 bf
       -0.76829255 0.75982267 0.8126106 -1.794933
000010 d6 11 ba bc b9 d6 3f 3f 3b 2d 48 3f 67 c1 a9 3e
       -0.022713583 0.74937016 0.78194016 0.33155367
000020 77 6c be 3f 64 4a 8c bd 62 dc 56 bd 87 86 18 3f
       1.4876851 -0.068501264 -0.052456267 0.5958027
000030 e9 e5 49 3f 38 ff f8 bc e3 2c 40 3f dc ea 5d bf
       0.7886644 -0.030395135 0.7506849 -0.8668649
000040 7d fd 4a 3f 5b 66 4b 3f 03 77 29 3f ab 7d 48 3f
       0.7929304 0.7945306 0.6619722 0.78316754
000050 fb 51 90 bf 1c 6e ac c0 b8 67 39 3f b0 22 3e 3f
       -1.1275018 -5.388441 0.7242389 0.7427168
000060 8b 15 46 3f 21 ec 41 3f 5e 34 36 3f 51 7b 34 3f
       0.7737662 0.7575093 0.71173656 0.70500666
000070 fc fc 2f bd 90 73 31 3f c2 ba 15 bc 3d 34 2e 3f
       -0.042965874 0.6931696 -0.009138765 0.6804846
000080 68 6e 58 3c 62 44 30 3f 7a 89 40 3f 60 0c 0d c0
       0.013209917 0.68854344 0.7520977 -2.2038803
000090 9f 1d 3e 3f df ab 99 bf 54 d6 aa bc 19 c5 44 bd
       0.7426395 -1.2005576 -0.020854153 -0.04803953
0000a0 84 63 35 3f 6f 27 4c 3f ff 2b 4e 3f 1e 1a bc bf
       0.70854974 0.7974767 0.8053588 -1.469547
0000b0 a0 22 4a 3f 6c f9 08 3e b7 91 3a 3f fc c7 2d 3f
       0.78959084 0.13376397 0.72878593 0.67883277
0000c0 63 33 4d 3f 08 6b 46 3f b6 6e 25 3e 4b a8 3a 3f
       0.80156535 0.77507067 0.16155514 0.72913045
0000d0 ff ff 46 3f 70 73 43 3f e3 17 24 c0 d9 f3 50 3f
       0.7773437 0.7634802 -2.563958 0.8162208
0000e0 9e 37 2f 3f 7e a0 23 c0 e3 38 bb bf 48 40 8e bd
       0.6844424 -2.5566707 -1.4626735 -0.069458544
0000f0 c6 7d 45 3f b7 fd 48 3f 1d f1 fd bc 59 cd 42 3f
       0.7714504 0.7851214 -0.03099876 0.76094586
000100 44 3c 39 3f 4f f0 44 3f aa b7 46 3f 3a 13 34 3f
       0.72357583 0.7692918 0.77624 0.7034184
000110 02 bc 46 3f 71 f5 8a 3e c9 4f 13 3e 08 22 46 3f
       0.7763063 0.27140382 0.14385904 0.7739568
000120 93 a3 ac bf 19 54 40 3f 54 4f 2f 3f 38 7f 13 c0
       -1.3487419 0.7512832 0.6848042 -2.3046398
000130 58 32 34 3f f1 40 30 3f bc 5a 47 3f 2d 0e 39 bd
       0.7038932 0.6884909 0.77872825 -0.045179535
000140 51 65 35 3f 44 50 a5 3d 53 20 42 3f a9 a1 6b c0
       0.7085772 0.0807195 0.7583057 -3.681742
000150 96 f8 3c 3f 9c 7f 34 3f 59 bd 3c 3f 68 bd ea bf
       0.7381681 0.70507216 0.7372642 -1.8339052
000160 de eb 3a bf 81 82 91 c0 0e 98 42 3f 62 6d 31 3f
       -0.73016155 -4.5471807 0.7601327 0.6930753
000170 13 8f 40 3f a5 eb 46 3f c2 c5 05 bf b4 8c 47 3f
       0.75218314 0.77703315 -0.5225488 0.7794907
000180 64 6f 08 3d 83 70 4d 3f 1b a5 3b 3f 90 18 40 3f
       0.033309355 0.80249804 0.73298806 0.7503748
000190 b3 93 4b 3f dc bf 4e 3f 00 9d 4b 3f 39 77 24 bd
       0.79522246 0.80761504 0.7953644 -0.040152762
0001a0 ee 35 3f 3f 9e 19 c5 3b 88 11 34 3f 6f ab 4d 3f
       0.74691665 0.0060150167 0.7033925 0.8033971
0001b0 26 51 49 3f 77 98 85 c0 f1 24 d4 bf d7 fc 49 3f
       0.7863945 -4.1748614 -1.6573774 0.7890143
0001c0 80 da 72 3d 99 f0 a8 c0 7d 00 3e 3f a4 e9 2e 3f
       0.05929041 -5.27937 0.74219495 0.6832526
0001d0 a7 a1 37 3f 79 38 31 3f 44 db 48 3f 9c b9 38 3f
       0.71731037 0.69226795 0.7845957 0.7215822
0001e0 6e 5f 3d 3f d7 77 2c 3f 2c 76 4a 3f 23 65 3b 3f
       0.7397374 0.6737036 0.79086566 0.732012
0001f0 2c be 2d 3f 07 55 4c 3f 3a ac 3f 3f 1a 97 30 3f
       0.67868304 0.7981724 0.7487217 0.6898056
000200 67 01 49 3f 60 fe 46 3d 09 98 36 3f c5 d3 33 3f
       0.78517765 0.048582435 0.7132574 0.7024501
000210 73 0d 3e 3f 7b 97 3e 3f 4a a0 30 3f 4d 05 8a c0
       0.7423927 0.7444989 0.6899458 -4.313147
000220 3c f1 2f 3f 15 0a 45 3f 57 50 4b 3f e0 db 4c 3f
       0.6872747 0.7696851 0.79419464 0.80023
000230 2e 88 44 3f 6a d2 47 3f 2b 94 36 3f bc 16 2f 3f
       0.76770294 0.7805544 0.71319836 0.68394065
000240 17 d3 1d c0 c9 b2 84 c0 09 9a ae 3c 4c 62 38 3f
       -2.466009 -4.1468244 0.021313684 0.7202499
000250 46 e5 da bf 9a bf 4f 3f d7 27 34 3f 1a f5 32 3f
       -1.7101219 0.81151736 0.7037329 0.69905245
000260 57 7f d1 bf dc e7 39 3f b3 d4 34 3f ba 2e 83 c0
       -1.6366986 0.72619414 0.70637053 -4.099454
000270 ad 99 46 3f ea dc 3c 3f fc 8b 2f 3f 68 3e 35 3f
       0.7757824 0.7377459 0.68572974 0.7079835
000280 f2 72 2b 3f 38 35 3b 3f e8 6f 34 3f 0e 4c 44 3f
       0.6697227 0.7312808 0.70483255 0.7667855
000290 a1 1f b8 be f3 21 d1 bb fe 0b 4c 3f 4a ea 37 3f
       -0.3596163 -0.006382221 0.797058 0.7184187
0002a0 73 48 31 3f 11 42 46 3f a5 fe 61 3f 60 45 4b 3f
       0.69251174 0.7744456 0.8827918 0.7940273
0002b0 29 96 32 3f 37 60 96 3e 21 b0 4c 3e 35 37 3e 3f
       0.69760376 0.2937028 0.19989063 0.7430299
0002c0 c4 bc 40 3f b4 fa 4c 3f da 09 4a 3f ed 0a 3b 3f
       0.75288033 0.8007004 0.7892128 0.73063546
0002d0 66 a9 31 3f 66 84 6f 3e b2 d7 bc 3c 65 bd 4a 3f
       0.69399107 0.2339035 0.02305207 0.79195243
0002e0 4b 4c 3b 3f 63 25 4a 3f eb af 2c 3f 96 7a 3a 3f
       0.7316329 0.789633 0.6745593 0.728433
0002f0 2f 0f 92 bd cb 16 4f 3f 2f c0 2f 3f 84 41 35 3f
       -0.07131802 0.80894154 0.68652624 0.70803094
000300 d1 b5 3c 3f ce c1 3b 3f e6 40 42 3f 5f 19 29 bf
       0.7371493 0.733426 0.7588028 -0.6605434
000310 b3 6a 45 3f 60 0d 4c 3f d7 a6 45 3f 1e b0 fa bc
       0.77115935 0.7970791 0.772077 -0.030601557
000320 31 a7 6b bb f7 ee 4e 3f 8f 77 44 3f ea 78 82 be
       -0.0035957808 0.8083338 0.7674493 -0.25482875
000330 ec 9f 32 3e 42 0c 3a 3f 47 fb 2b 3f ee 57 15 bf
       0.17443818 0.72674954 0.67180294 -0.58337295
000340 41 82 4f 3f a8 46 35 3f d5 06 40 3f 3b 01 80 c0
       0.81058127 0.7081094 0.75010425 -4.00015
000350 5a ae 39 3f 99 c1 60 3f 6a 8a ed bc 91 ca db bc
       0.72531664 0.87795407 -0.028996665 -0.02682999
000360 2d 91 4c 3f 6d 9c 34 3f e7 46 44 3f fa 5a 8f c0
       0.7990902 0.70551187 0.7667069 -4.4798555
000370 6a ed 4e bf 6e 25 49 3f a8 b3 2d 3f ba 1b 40 3f
       -0.80831015 0.7857274 0.6785226 0.7504231
000380 90 e2 41 3f b1 27 42 3f 09 44 45 3f ef bc a7 bf
       0.7573633 0.75841814 0.7705694 -1.3104533
000390 1c d3 35 3f 48 7c ab 3e 48 19 2f 3f 16 39 fd be
       0.7102525 0.33493257 0.6839795 -0.49457616
0003a0 48 fb 31 3f 24 95 4c 3f a0 84 dc 3d 13 51 3a 3f
       0.6952405 0.7991507 0.10767484 0.7277996
0003b0 d9 13 2d 3f a0 fd 3f 3f 1c 6b c0 3d a0 9e 83 c0
       0.6760841 0.74996376 0.093954295 -4.1131134
0003c0 2d ee 47 3f 63 8c 32 3f 66 ff 4c c0 ec de 3c 3f
       0.780978 0.69745463 -3.2030883 0.7377765
0003d0 96 5d 3c 3f 75 5a 10 3d b4 e0 39 3f ca d0 88 c0
       0.735803 0.035242517 0.72608495 -4.275487
0003e0 86 92 f9 bc b9 a2 35 3f c8 91 76 c0 2d 02 02 3d
       -0.030465376 0.7095142 -3.8526478 0.031740356
0003f0 da 30 a7 bf ac ed 49 3f c9 48 4c 3f 96 67 40 3f
       -1.3061783 0.78878284 0.7979856 0.7515806

fc3.bias f4 [4]
000000 a1 b3 cb bf 44 f2 ef 40 1a 79 1a c1 f1 86 41 41
       -1.5914193 7.4983234 -9.654566 12.095445
